best_graph_ddpm.pt (torch, 322660 bytes, 26 tensors)

time_mlp.0.weight f4 [128, 64]
00000000: 7e6f 94ba 8fd2 9dbc 9c69 193c a973 713b
00000010: 9cae 083c 305f 60ba 41b3 a5bc b145 583b
00000020: a3d0 a0bb 0153 02bb a317 493c c881 7d3d
00000030: 386b b8bd 22c8 8b3d 91e3 c73d 6d44 b6bd
00000040: 5ff4 bb3d 02db 9d3d 798f 46bc 24ee 453d
00000050: cdae 60bd 4f40 f5bd 9bd8 ac3c 6d4e dc3c
00000060: 8269 bcbd 4e42 4e3d 94ad efbd 1255 c73d
00000070: a2ea e23d f1bc c23c 23ab b5bd fefb 4e3d
00000080: fc45 5e3b ac23 d13b 8efb 643b 10f5 f83b
00000090: 3ab6 213c 35d2 f93c f496 41bc fea5 dd3b
000000a0: defe 953b ac3b 753c ae5f 883c 5128 533c
000000b0: 278a 14bd 5ae8 e33d 6337 143d 8ea3 d1bd
000000c0: d73e 87ba 448f fbbc 70e2 103d b9c9 97bb
000000d0: 0402 fdbd 5c33 cabc 2788 74bc 2322 25bd
000000e0: c99a e33d 1bf7 febc e46c 9c3d cf30 dd3c
000000f0: 4343 e0bd 1add cf3c 40f3 cb3d c4a9 afbd
00000100: aa76 c93b 3b9f b83b 3961 f93a 7f6a 70bb
00000110: c14b b63b 918c d13c 55aa c4ba 45ce 6138
00000120: 4d9a f8bb 457f 52bc b361 3ebd 271f ebbc
00000130: ad31 903d 358f d13c a915 a3ba 2ff7 1dbc
00000140: ddf8 913d 705a 15bd 1806 0a3d 128b 6f3d
00000150: d510 753b d417 8fbc 25a0 233e 6ae0 243e
00000160: 62ea 17bd 2544 ee3d 5e88 023e 4c11 483e
00000170: f280 183e 3e13 443e a2a9 113d 8bdc 273e
00000180: 68e9 02bc 4d39 593c f8bd d3bb dfbc 81bc
00000190: 715e 91bb 5896 613a 1450 903c e042 ff3b
000001a0: 97ed 40bc 6995 093c d1c0 9b3c fbdb 973d
000001b0: 420c 80ba 198c ce3c 8f71 e5bc 5b73 92b9
000001c0: 99e9 b43d c151 8e3c 127d 23bd 7f6f dc3d
000001d0: e282 3ebd dd95 00bd 1b65 813c 613e b1bd
000001e0: 97bc bc3c 7f70 99bd 1b64 bc3c 4c64 b63c
000001f0: 19b1 e23c aa8d c2bd cfc2 ddbd 0b34 8b3d
00000200: 215c 25be 3bcc 623e 91c4 c83d f19e 163e
00000210: b130 5739 166a 313e be5d e43c 45cb c3be
00000220: 2e25 99be e18d 03bf 01b4 49be ede4 ffbc
00000230: 45c8 b73e c259 c33e 06ac 8abd fe79 d9be
00000240: ac20 0ebf c27b 21bf 8554 39bf df47 34bf
00000250: d120 17bf 06ed 38bf 14ff 1bbf 1a7e 11bf
00000260: 5259 17bf 2ea7 f0be af43 f7be 1d67 c2be
00000270: aba4 e9be 86e1 00bf e461 a2be 9eb0 bdbe
00000280: 4b57 2dbe 9567 253b c045 04be 6caa c63d
00000290: d550 bf3d b7fe 0ebd 54c3 2d3e 1f8d 1f3e
000002a0: e976 8dbe 9240 5dbe e058 97be 89b3 2fbf
000002b0: c42a fbbe 45f2 133d b9af 123e 1238 2c3e
000002c0: 5f6c e4bd 28ca b7be f5e4 3ebf 2d74 4cbf
000002d0: 794e 63bf 38a5 66bf afd6 90bf b7c3 69bf
000002e0: cf49 90bf 2d43 69bf 75d1 83bf c16e 91bf
000002f0: f4b8 7dbf 039a 86bf 9cbb 91bf 002c 89bf
00000300: 3b84 c73d e303 853d a4f1 18be 4af3 c73b
00000310: db1c 62bd 841c be3a 3455 b3bd 62ae 22bf
00000320: 098f dbbe 0993 75bf 9c33 8abe 6f01 19bf
00000330: 224d 393e e4b3 a53e 9cf7 c1bd e1ac 1fbf
00000340: cb4b 5bbf 4878 7bbf 4fa2 68bf e805 67bf
00000350: 1f5f 4ebf 8f10 4abf 1fa8 4fbf d297 3fbf
00000360: 17cd 2abf ff40 35bf 7292 16bf edf6 13bf
00000370: 9846 fdbe 78db fabe 7000 cfbe b3b2 f6be
00000380: 9c55 883e b6d3 593e 9115 943e 5d4c 1a3e
00000390: 4131 083e 1c3f cc3d 0eb6 943e 0272 843e
000003a0: 2463 a7bd 5be5 363e 7ce5 64bc 7215 b8be
000003b0: 34f0 01bf ce18 d53d 35e3 cb3e 4c8b c93d
000003c0: cc92 66bd f9fa f7be ac8c 23bf abef 48bf
000003d0: 2bf7 6dbf 99dd 7abf d056 76bf 9c7e 55bf
000003e0: 05e4 56bf 141a 81bf f3dd 72bf 5598 66bf
000003f0: 8577 81bf 2c52 55bf e469 4abf 86c3 61bf
-0.0011324731 -0.019265441 0.009363558 0.003684262 0.008342411 -0.0008559106 -0.020227076 0.0033000524
-0.004907684 -0.00198859 0.012273702 0.061891347 -0.09004825 0.06825282 0.09760202 -0.0889977
0.091774695 0.07707788 -0.0121191675 0.04832281 -0.054854203 -0.119751565 0.02109938 0.026892865
-0.091998115 0.0503562 -0.11703029 0.09733023 0.11079909 0.023771735 -0.08870532 0.050533287
0.0033916226 0.0063824262 0.0034939977 0.007597573 0.009870106 0.030495742 -0.011815775 0.0067641726
0.0045775017 0.01496784 0.016647186 0.01288803 -0.036264565 0.11128302 0.036185633 -0.10236274
-0.001031841 -0.030707963 0.035372198 -0.0046322015 -0.123539 -0.024682693 -0.014925039 -0.04031576
0.11113507 -0.031123688 0.07637957 0.027000813 -0.10950329 0.025373984 0.09958506 -0.08577302
0.006148179 0.005634216 0.0019026167 -0.003668457 0.00556323 0.025579723 -0.0015004376 5.3836284e-05
-0.0075867535 -0.012847726 -0.046479892 -0.028701378 0.07040725 0.025580982 -0.0012442368 -0.009641453
0.07127545 -0.0364632 0.033697218 0.058482237 0.0037394066 -0.017467417 0.15979059 0.16101232
-0.03708876 0.11634091 0.12747332 0.19537848 0.14892939 0.19147965 0.035562165 0.16392724
-0.007990219 0.0132582905 -0.006461855 -0.015837131 -0.004436307 0.0008605472 0.01761631 0.0077899545
-0.011775396 0.008397439 0.01901284 0.07415005 -0.0009769278 0.025213288 -0.02800825 -0.00027933237
0.08833618 0.017372968 -0.0399142 0.10763454 -0.04651154 -0.03139292 0.015795281 -0.08654476
0.023039145 -0.0749216 0.022996953 0.022264622 0.027672337 -0.094996765 -0.108281724 0.06797036
-0.16148426 0.2214822 0.09803117 0.14709069 0.00020522137 0.17325625 0.027876731 -0.3824102
-0.29911178 -0.51388365 -0.19697572 -0.03123709 0.3589498 0.38154417 -0.06771092 -0.42475885
-0.55518603 -0.63079464 -0.7239459 -0.70422167 -0.5903445 -0.7223667 -0.60936093 -0.5683304
-0.59120667 -0.47002548 -0.48293826 -0.37969294 -0.45633444 -0.5034412 -0.3171531 -0.3704881
-0.16927831 0.0025238742 -0.12917233 0.09700474 0.09341589 -0.034910884 0.16969043 0.15581177
-0.27629784 -0.21606663 -0.29559994 -0.68633324 -0.49056065 0.036119718 0.14324845 0.16818264
-0.11153483 -0.3589642 -0.7456811 -0.7986477 -0.88791615 -0.90095854 -1.1315516 -0.9131426
-1.1272525 -0.9111813 -1.0298296 -1.1361924 -0.9911034 -1.0515751 -1.1385379 -1.0716553
0.09742018 0.06494882 -0.14935929 0.0061020004 -0.0552033 0.0014504348 -0.087564856 -0.6354734
-0.42882565 -0.9592748 -0.269925 -0.5976781 0.1809583 0.32363808 -0.09471056 -0.6237317
-0.85662526 -0.9823041 -0.90872663 -0.9024339 -0.80613893 -0.78931516 -0.8111591 -0.74841034
-0.6671919 -0.708023 -0.5881721 -0.57798654 -0.4946792 -0.48995566 -0.4043002 -0.48183212
0.26627815 0.21272168 0.28922704 0.15068193 0.13300039 0.09972975 0.29045147 0.2586823
-0.081732064 0.1786093 -0.013970729 -0.3595386 -0.50757146 0.10405122 0.39821783 0.09841022
-0.05629234 -0.48433664 -0.63886523 -0.78490704 -0.92955273 -0.9799438 -0.96226215 -0.83396316
-0.8394168 -1.0086083 -0.9486992 -0.9007619 -1.01146 -0.8332851 -0.79067826 -0.8818897

time_mlp.0.bias f4 [128]
00000000: 0554 0d39 206a 37bc 52e0 8cbf f75a 48bf
00000010: 2e55 7dbd 3a7c 51bb 186a 88bd 770a 3cbc
00000020: 6bbf 2dbf 671b d43d 5ae5 7ebf ab73 4abf
00000030: 1e3f dd3b 6d38 1f3d 1a59 69bf 9319 c1bc
00000040: 0cef 3ebf f8ae 5abf 0f4a 39bf a577 c9bd
00000050: 470f e3bd 01a6 53bf 354b 8fbd 8d12 f7bd
00000060: 8aa9 03bf 6815 18bf 6d58 4ebf 2271 94bf
00000070: 3327 d0bc 6b0a 76bf cfb0 5cbf d7ef 93bd
00000080: 416f d23d 4540 303d 246c 663d 7508 1dbf
00000090: 3dfd 69bf 951b 5bbd 4f05 83bf 4414 79bf
000000a0: c848 90bf dc56 78bf 0b63 1a3d c42e 4bbf
000000b0: 5c46 66bc 335f 55bf 5264 aabc a17a f43c
000000c0: 2f4e 70bf f9dd b8bd f1f0 53bf 495e 07be
000000d0: c61e acbe 7250 82bd 5e7b 11bf 404a a3bd
000000e0: 3449 fe3c bfbb 0ebe 8b93 ca3d 0034 6ebf
000000f0: 8727 8c3d 1d9e 69bf 99c6 36bd c169 15be
00000100: 530a fabd cb74 eebd d95c 7fbf 7785 873d
00000110: 4e8e cf3c 7e14 76bf 0ffc 3bbf d12e e9be
00000120: df1c 11bd d659 27bd b0f1 52bf 5bb8 fa3c
00000130: 97bb 7bbf 1595 7abf 3072 303d 3cf4 7bbf
00000140: dba4 673d 1055 dabd 3539 cd3d 32bd 75bf
00000150: cda8 84bf 1db0 bc3d 4885 c7bc e1e4 ccbd
00000160: 3735 8fbf 9414 6dbf a938 05be d2a5 8dbf
00000170: df74 6dbf 70d6 aabd e55a df3d 2c9f 32bf
00000180: 8163 7bbf cc78 a2bb f6a6 5c3c beac 44bf
00000190: 5d34 13be 7de2 853c 4899 86bf 1292 b83d
000001a0: 185b 2cbf 166a 6abf 3b6b 5fbf a787 5fbf
000001b0: cc9b 413d f1e7 8bbf 6d83 98bd d1ec 143d
000001c0: 9f23 6d3d 5bd4 cf3d f0f5 75bf 015c 6abf
000001d0: b97b 62bf aa53 58bf 10b1 a83d 5dc0 79bf
000001e0: 69cc 2ebf 658d 38bc c2fd c1bd 276b 87bd
000001f0: 35d7 7d3d 7456 bf3d e1ba 5bbf 9748 a6bd
0.00013478108 -0.011194736 -1.1005957 -0.782638 -0.06184881 -0.0031964914 -0.06660861 -0.011477104
-0.67870206 0.10356789 -0.9956871 -0.79082745 0.006751909 0.03887217 -0.91151583 -0.023571765
-0.74583507 -0.8542323 -0.7237863 -0.098372735 -0.11086898 -0.82675177 -0.069967665 -0.12064085
-0.5143057 -0.59407663 -0.8060368 -1.1597025 -0.025409317 -0.96109647 -0.8620729 -0.0722348
0.10275126 0.043030042 0.056255475 -0.6134103 -0.91402036 -0.0534931 -1.0235995 -0.9729655
-1.1272211 -0.97007537 0.03769211 -0.79368234 -0.014054861 -0.8334839 -0.02079979 0.02984363
-0.938693 -0.09026713 -0.8278952 -0.1321956 -0.33617228 -0.06363 -0.5682887 -0.079731464
0.031040765 -0.13938807 0.09891423 -0.93048096 0.06843477 -0.91256887 -0.04462299 -0.14591123
-0.122090004 -0.1164337 -0.9975105 0.06617253 0.02533641 -0.9612502 -0.73431486 -0.4554353
-0.035427924 -0.04085716 -0.82400036 0.030605486 -0.98333114 -0.9788373 0.043077648 -0.9841955
0.056553703 -0.10660756 0.10020677 -0.95991814 -1.0364014 0.092132784 -0.024355546 -0.10004593
-1.1188115 -0.92609525 -0.13009895 -1.1066229 -0.92756456 -0.08341682 0.10906009 -0.69774127
-0.98198706 -0.0049582478 0.013467541 -0.76826084 -0.14375444 0.01634335 -1.0515528 0.09012236
-0.673265 -0.91568124 -0.87272996 -0.87316364 0.04726772 -1.0930158 -0.074469425 0.03635866
0.0578953 0.101479255 -0.96078396 -0.91546637 -0.88470036 -0.8450266 0.08236897 -0.9755915
-0.68280655 -0.01126418 -0.094722286 -0.066122346 0.061972816 0.093426615 -0.8583203 -0.08119314

time_mlp.2.weight f4 [128, 128]
00000000: 3f23 873c d9f3 053c ed47 3abd 02b2 fa3e
00000010: 04d4 173c 4042 203d c9e5 5cba db58 ea3c
00000020: 052c f13e e3e2 933d c473 003f 3097 463f
00000030: 6cbf 53bb f8cb debb 686d 413f 357d feba
00000040: 1338 b13e 3b19 ca3d 4657 34be c561 943c
00000050: 5a34 533d 6e6e 293f 0e59 223d dc78 30bc
00000060: 9816 9abf d9b7 3f3c 564e 003e b0bc c33c
00000070: a515 773b 6b49 093f 21b9 343f 6fe4 f739
00000080: 4c6a df3b 99b3 3c3c 498b 053d 8bc6 893e
00000090: 30ff a83e 6807 b43b 3e9e 783e 1a87 013f
000000a0: 3bdb 2b3e c286 343d 3db2 003e d2df 163f
000000b0: ee07 15bc 342b 5d3f 6358 75bc 7b92 84bc
000000c0: f55e 173f d921 a93d c94f 703f d204 483c
000000d0: 2ce3 ca3e 7ed4 50bd afcf dd3c 8d80 e23b
000000e0: 86da fc39 103a 043d d12c 593a bc19 263f
000000f0: 5971 923c 9364 fb3d e855 e73b 1561 eabb
00000100: 78d1 e2bb 55f8 1e3c e596 f03c 0d8d a03c
00000110: 64bc 36bb ec82 883d 24fe 203f 9368 2a3f
00000120: 29ee 103c 9590 2cbc 073e 183e 664e 1fbd
00000130: 8612 eabe 46f0 023f 7c47 863c 4a26 f13e
00000140: dfcd 113d 8675 18bc 237d dcbc 46fa 1a3f
00000150: bb4c a23d b407 6f3c 5617 1f3d 9dc2 1cbd
00000160: 0503 473e f784 a13d ba2c 2e3c 7d3e 5c3d
00000170: 88ea 843e 1efa 673c a666 fbbc 11a9 a5bc
00000180: 9a59 3b3e 46fb 6ebc bbed ea3c a711 013e
00000190: cc63 dc3b 058c 8d3c 29e1 a4bc 54b4 caba
000001a0: 3004 b63e a9b1 fd3e d9b3 593d 4cea 3d3e
000001b0: 4765 43bb ba45 273e ae83 afba 69af dd3c
000001c0: 4242 d0ba 7014 de3c 8b27 d53d 7cdb 4b3f
000001d0: d09c e93d 7376 453f d689 3d3a 1aa5 5ebd
000001e0: 7f67 a53e d890 dbbb d7fa ae3c 589c 8d3c
000001f0: 9e05 0abc 48ab f13b 97e7 ee3d b053 1a3c
00000200: d744 adbb 77a1 d23c 041f c43e 9e06 c3bd
00000210: 1279 a83c 744d 03bc e306 95bc 5344 c63b
00000220: f58c 523f 7342 f33c 06fe 97be b1ec 12bf
00000230: 38d7 88bc 8693 8abc 16a4 d23c 55b4 9abc
00000240: 103d b1bf 1550 553f b651 aabf 4c89 523c
00000250: e1f5 7abd 72fa 6fbe 846a 1d3c ebe7 a1ba
00000260: c008 5cbf 5ff7 a3bf 0e2e c8bf 7fb9 013f
00000270: 0ea3 363d f0be 633c 9aa8 233e 491a 2c3d
00000280: c0be 49bc 7351 3abc 3fb0 adba df70 803f
00000290: 047a 94bf 62bf ed39 03ed 1cbf f652 b9be
000002a0: ba73 8dbc debb 873e 47de c83e d1cf d9bd
000002b0: 0a31 7e3c aa1e 88bf 4edf ec3a 45fb ad3c
000002c0: f830 33be f260 1bbd 966d 8dbf 011b 4d3c
000002d0: 070c 6abf 31ec a7ba d3b7 de3c 4366 91bc
000002e0: 11d2 793c 9782 a3bc 3a01 56bd fbf4 203e
000002f0: f410 f43c 4387 533f 4f1c 97bc 5d6a f7bc
00000300: 6203 153d 2aea be3c 675f 013f f7ca b93c
00000310: 82da 0abc e1a9 0c3e 664b bdbf d54e e5bf
00000320: 2d63 3dbc 3f3f 193c 73bb bebf db61 013d
00000330: 3917 8dbe 23e0 32bf 02e2 67bb 6924 f8be
00000340: 5e7d d33b 74a9 043c be1a 7a3c 3b99 39bf
00000350: 1ee7 30bd c659 22bc 96f7 2f3d c6c5 493b
00000360: 420e 5abc bbc4 4c3e 5141 77bc ac42 333e
00000370: 5ff2 babe 3105 9cbb 44aa d6bc 2caf bbbf
00000380: 48af 043e c362 2d3c 4fcc 94bc e1e1 81bf
00000390: 429f 8fbc 7ac4 1f3c 98ed 123f f28b 91bc
000003a0: ef2b 97bf af21 0fbe 542d b9bd ee8e 85bf
000003b0: 20e1 8abc 8bef 863d b037 10bc 84c2 f23c
000003c0: 88fe 1a3d 64f7 873c 9f9c bebd b7cd b8be
000003d0: 8a87 233f 3d0c 20bf af42 ec3c 2de7 913e
000003e0: 63e4 a5bf 5432 34bd 5475 1ebc 4f51 9dbb
000003f0: c947 063d 86e5 873b 6c4b e7bd 0f11 8d3c
0.016496299 0.008175814 -0.04547875 0.48963934 0.009266857 0.03912568 -0.00084265746 0.028606823
0.47103897 0.072210096 0.50176644 0.77574444 -0.0032310141 -0.0067992173 0.75557566 -0.0019415977
0.34613094 0.098680936 -0.17611417 0.018113026 0.0515636 0.6618413 0.03963571 -0.010771003
-1.2038145 0.011701548 0.12529883 0.023893684 0.003770211 0.5362765 0.70594984 0.00047281708
0.0068180915 0.011517429 0.032603536 0.2690929 0.33007193 0.005494047 0.24279115 0.50596774
0.16782849 0.044073828 0.12567993 0.5893527 -0.009096129 0.8639405 -0.014974686 -0.016183129
0.5912927 0.08258409 0.9387174 0.0122081805 0.39626443 -0.0509839 0.02707657 0.006912297
0.00048227998 0.032281935 0.0008284571 0.6488302 0.017876314 0.122750424 0.0070598014 -0.0071526864
-0.0069219433 0.009702762 0.029368827 0.019598508 -0.0027883286 0.06665596 0.6288779 0.6656582
0.008845844 -0.010532518 0.14867412 -0.038893126 -0.45717257 0.5114788 0.016391508 0.47099525
0.035596725 -0.0093053635 -0.026915139 0.60538137 0.079247914 0.014589239 0.038840614 -0.038271535
0.19434746 0.07886689 0.010630781 0.05377053 0.25960183 0.014158754 -0.030688595 -0.020222219
0.18295899 -0.014586275 0.028677812 0.1260439 0.006725764 0.01727868 -0.020126896 -0.0015465119
0.3555007 0.49549606 0.05315003 0.18546408 -0.0029815005 0.16335192 -0.0013390684 0.027061181
-0.0015888887 0.027109355 0.10407933 0.7963178 0.11406863 0.77133864 0.0007230317 -0.054356672
0.32305524 -0.0067006163 0.021359844 0.017286465 -0.008424191 0.0073751546 0.11665266 0.009419367
-0.0052877474 0.025711758 0.38304913 -0.095227465 0.020565543 -0.008014072 -0.01819176 0.0060506254
0.82246333 0.029694771 -0.29685992 -0.5739241 -0.016704187 -0.016916048 0.025713008 -0.018884817
-1.384676 0.8332532 -1.3306186 0.012850117 -0.061269645 -0.23435381 0.009607915 -0.0012352442
-0.8595085 -1.2809867 -1.5639055 0.5067367 0.044589095 0.0139005035 0.15982285 0.042017255
-0.012313545 -0.011371958 -0.0013251378 1.0034446 -1.1599736 0.00045346754 -0.6129915 -0.36196107
-0.017267097 0.2651052 0.39232084 -0.10635341 0.0155146215 -1.0634358 0.0018071921 0.021237979
-0.17499149 -0.03793425 -1.1049068 0.012518645 -0.914246 -0.0012811479 0.027187264 -0.017748957
0.015247838 -0.019959731 -0.052247263 0.15718453 0.02979324 0.8262827 -0.018446116 -0.030202085
0.03638018 0.023305018 0.505362 0.022679789 -0.008474948 0.13736679 -1.4788635 -1.7914683
-0.01155929 0.009353458 -1.4900955 0.031587463 -0.2755678 -0.69873255 -0.0035382514 -0.4846528
0.006454154 0.008097041 0.015265165 -0.72499436 -0.04318916 -0.009909099 0.042960726 0.0030788048
-0.013309063 0.19996922 -0.015091256 0.17505902 -0.3651304 -0.004761361 -0.026204236 -1.4662833
0.1295749 0.010582629 -0.018163828 -1.0147058 -0.017531995 0.0097514335 0.5739379 -0.017766926
-1.1810282 -0.13977693 -0.09041849 -1.0434244 -0.016953051 0.06588658 -0.008802339 0.029633768
0.037840396 0.016597457 -0.09307217 -0.36094448 0.6387869 -0.62518674 0.028840391 0.28496686
-1.2960323 -0.04399331 -0.009671528 -0.0048009525 0.032783303 0.0041472344 -0.112936825 0.017220048

time_mlp.2.bias f4 [128]
00000000: 623b a9bd 6b49 07be 879b 863d 2505 02be
00000010: c6b4 26bc a465 6d3d 2803 d83d 1770 a8bc
00000020: 7d11 5d3d ea1a f7bd 533b 703c aa97 923d
00000030: d137 303e efb7 3c3d 590d 993e 34b1 6d3e
00000040: 63a5 ac3b 7fcd ac3d 0bac 513c 074e a73f
00000050: d833 0140 6c99 f13d f710 12bd ea44 373e
00000060: 1d5c 013f 8ef5 843c 2d7d a83e f7a9 203e
00000070: fc6e d93d d785 20bd e9ed 313e bdd6 20bc
00000080: 4b3e e83d 2b6e 4a3e 881f 8d3f 6509 8f3d
00000090: 34d6 5bbd 4ec1 8c3d 7e66 2e3e b192 423c
000000a0: 54c1 d7be 95d0 25bd eb31 bc3c 8aac 2c3e
000000b0: 063f c83a 178b 8abe 629c 9bbd 6459 9c3c
000000c0: 2d18 663c 8b66 09bd 3ac2 10be ddea 40be
000000d0: f917 10bc 8a18 953d 8a67 0abe 2957 be3d
000000e0: 6706 8bbd 2d24 20be d199 693a 5a35 8e3d
000000f0: 6d8c 1d3c 3a53 9c3d be30 4e3d 4fcf 063d
00000100: 1048 a43d 5c72 f9be ff90 933d a2b4 c83d
00000110: d0f1 aa3d 2a25 ab3e 5b19 ae3d 5463 bd3d
00000120: 8b5b e33d e7a5 533d d16b b03d 30b0 3cbe
00000130: ed03 0cbe 11fd 9abd 9cf2 e33d 374c 1b3e
00000140: f772 2b3d df60 f3bd ba16 09bf 0f33 703d
00000150: 9551 603d 2261 6b3c e3f8 e9bd 1281 933d
00000160: fc88 babd ed84 a0bc 10fd 1a3d 5cd3 133e
00000170: c398 d5bc f413 97be bfd7 8e3d 6199 9bbd
00000180: 75c2 fdbb 152e 8a3d a788 2a3e f6b6 07be
00000190: 337a a7bd c5e0 77bd 880c 57bd fbe3 45bf
000001a0: 7ecc 3e3d 9777 1abe 757a d13f a1f6 a83d
000001b0: 8e4f 123e ed4c f8bd 7b8d 183d 9b62 46be
000001c0: aabe b53a 88a8 8f3d 49d0 4f3c 547a e53d
000001d0: bc96 e3bc e41f 153d 59ac 4abd 85dd 193d
000001e0: 3af3 9f3d eab4 0abf 9865 a93a 851d 653d
000001f0: ba9c a73d 2132 8b3d 7c60 af3c e40a 8abc
-0.082632795 -0.132116 0.06572633 -0.12697275 -0.010174936 0.05795826 0.10547477 -0.020561261
0.053971756 -0.1206568 0.0146625815 0.07157834 0.17208792 0.04607385 0.29892996 0.23212129
0.005268739 0.08437633 0.012797366 1.3070687 2.0187893 0.11796841 -0.03566071 0.17897382
0.5053118 0.01623037 0.32908002 0.15689836 0.10616872 -0.03919014 0.17375912 -0.009816823
0.113400064 0.19768588 1.1025248 0.06984214 -0.053671077 0.068728074 0.17031285 0.011875794
-0.42139685 -0.040482122 0.022973021 0.16862693 0.0015277572 -0.27059242 -0.07598187 0.019085594
0.01404385 -0.03354506 -0.14136592 -0.18839593 -0.008794778 0.07280071 -0.1351606 0.09293968
-0.067883305 -0.156388 0.0008911165 0.0694377 0.009616 0.07633062 0.050339453 0.03291255
0.08021557 -0.48720062 0.0720539 0.09800078 0.08346903 0.3342679 0.0850093 0.09247461
0.11101445 0.05167189 0.08614314 -0.18426585 -0.13673373 -0.075678 0.111302584 0.15165792
0.041857686 -0.11883711 -0.53550303 0.058642443 0.054765303 0.01436642 -0.114244245 0.072023526
-0.09108159 -0.019594634 0.037838995 0.14436096 -0.026073819 -0.2950741 0.06974744 -0.07597614
-0.0077441284 0.06747071 0.16653691 -0.13253388 -0.081776045 -0.06051709 -0.052502185 -0.77300996
0.046581738 -0.15084682 1.6365496 0.08250166 0.1428816 -0.121240474 0.0372443 -0.19373553
0.0013866026 0.07014567 0.012683936 0.11204973 -0.027781837 0.036407366 -0.04948077 0.037564773
0.07810064 -0.541823 0.0012923954 0.055936355 0.0818419 0.06796671 0.021408312 -0.016850896

input_proj.weight f4 [128, 8]
00000000: 9fc0 e5bd c2b5 8e3e c85f 8e3d 8dbe c2bd
00000010: fa47 0b3e 2491 0dbe 7c91 0abe 2c2e 7fbd
00000020: 5d56 c0be 571d d2be 1845 9d3d 4e52 243f
00000030: 42a1 eabe 1e44 15bf 8fc3 b8be 0080 c33e
00000040: c34f b93b 143a 7f3b a621 9a3b c77d 433c
00000050: 1742 833c 32a8 433c 683c 07bc a7ef a6bc
00000060: 4156 b2bd 09c1 e93d 05b5 c33e d702 a7be
00000070: 550b ebbe 9554 cdbe 811c 84bd 70a5 83bb
00000080: 9b67 2fbb ce72 acbc 79b2 f23b d002 e13c
00000090: 4360 c639 9752 73bb 7882 2c3b 596b d8bb
000000a0: abc9 023d 2727 cc39 c06d fb3b 90c7 60bc
000000b0: f2d5 b13c 0dbc a3bc bfee d03c 52bc 02bc
000000c0: 01aa dfbe a59f 7a3d 2bea 8dbe 846e 71be
000000d0: dd23 f93e 20ae 11bf 0c35 503f 8d92 973e
000000e0: ae30 11bb 7caa 6a3c 0a74 86bc 7a8c 70bc
000000f0: ed01 973a 650a 4f3c 4fdc 803b 51de 43bc
00000100: 555f 76be ba7b 09be f888 883e 80bd 913e
00000110: ee2c 00bd fd13 963c 83f9 a3be d855 0bbf
00000120: ec28 823e f5b3 9a3e 3245 85be 4132 b2bd
00000130: 4583 823e ca24 923e df51 cbbe eb5f 4dbe
00000140: 39d7 4bbe dbd9 02be 473c 72bd f9dc cfbc
00000150: 10c9 a0be 957a b5be 261d 643e c435 093d
00000160: cc92 de3c f08d 803c 2dd5 fdbb 4ea3 3abc
00000170: a293 b33b 3177 0abc d7a7 2d3b bb63 833c
00000180: c014 c53d af58 683e 30bb 443e 892f f23e
00000190: 07f9 ce3e 0229 94be 1e31 8cbc d540 59be
000001a0: ce9d 883e 130b 09bf 618e e83e a4b1 203e
000001b0: ddf2 823e dbc1 4cbe 811c 2b3e 2fad 193f
000001c0: 52b0 953e ea20 c2bd e617 8d3d a780 d1bd
000001d0: 0631 603e f2c4 5abe 209b d93d 2e64 a0be
000001e0: 401a 89be 283f 3bbf 8fb2 9fbe 692e a9be
000001f0: 7e09 f7be afbc bf3e df9e e03e 68bd 073f
00000200: 825e 1e3b 5018 d6bc da9b 85bb ca1a 0e3c
00000210: e751 51bc 4815 8a3b 8a1a cdb9 3417 05bd
00000220: 720f 0abe c9b0 3dbe 3e66 9f3e e180 b0bd
00000230: 494f fdbc bf7b 6d3e c910 b5bd 535f 8ebe
00000240: cc20 b7be 5594 073f 1d34 5e3e 35ae 4d3e
00000250: f83d 3fbe a4af ae3d a534 963e cf17 eabe
00000260: 6b04 5e3e 5610 6f3d f1e7 bc3e 5333 9fbe
00000270: 4244 b4bd 6dc1 d8be 751b ac3e a76c c13d
00000280: e670 d7be ec1a 21bf 2452 e03e 8f01 013f
00000290: 590a 98be 20fd 46be cfe8 3fbe 4e61 c0be
000002a0: 348d c53c 05ed b23c 8473 023b 867a 15bd
000002b0: 22e4 7b3d e8f9 ddbc 5970 7fbd ef16 66bd
000002c0: aaff 163b 2f11 68bb eb35 96bb 4463 f8bb
000002d0: e7c6 453c 405d ce3b a59f 05bd 15b3 4ebc
000002e0: 4186 d5be 6955 5ebe 2b00 9fbe 39b9 9d3d
000002f0: f5cf 3d3d d101 99be 34b4 ae3d 1f3b c03d
00000300: 94b3 a8ba 86a7 043c 1810 233d c0e3 08bc
00000310: 7f48 c13b d1ae a63b 1e39 bd3b 422f 1bbc
00000320: b53f d7be 7501 b23e da17 95bd 781b 193f
00000330: a67d a53e d464 ffbd e36d 04bf 1b08 9e3e
00000340: 85a8 f1bd 6d1e f43d 0b7c 2cbe 76e0 13bf
00000350: df99 84be 3aa1 26bf d7c2 2bbe 5fce 4a3d
00000360: ca17 e53b 8500 e33d 6aa5 bd3d 3e8e 273e
00000370: 5d1b 71bc 2d27 993e 3452 6d3e 7f74 423d
00000380: 990f 633a e209 2abc 58d7 0c3d d3f7 a3ba
00000390: d50a 063a 0dfd dfbc 4107 36bb a013 273d
000003a0: 6848 063f 793b bdbe 4cac bd3e 19c6 cbbd
000003b0: 2544 cfbd 8ef3 81be 9a23 8e3e 4ff5 af3e
000003c0: b952 9dbc 7bb6 ef3b 5d13 6e3c e1c9 8c3c
000003d0: 9691 07bc a9c0 2bbc 9949 793c 29c9 77bc
000003e0: 4f49 bcbe c15c e33e 94a5 273f 44e6 28bf
000003f0: 116e 16be c60d ca3e b871 d7be 47f5 3c3c
-0.1121838 0.27873045 0.069518626 -0.09509001 0.13601676 -0.13824898 -0.1353206 -0.062299892
-0.3756589 -0.4103801 0.07679194 0.64188087 -0.45826155 -0.58307064 -0.360867 0.38183594
0.0056552603 0.003894453 0.0047037182 0.011931843 0.016022725 0.011941956 -0.008254148 -0.020377947
-0.08707858 0.11413772 0.38224044 -0.32619354 -0.45907083 -0.40103593 -0.06450749 -0.0040175244
-0.0026764635 -0.021050837 0.0074065295 0.027467161 0.00037837223 -0.0037128085 0.0026322883 -0.0066045937
0.031930607 0.00038939083 0.0076729953 -0.013719454 0.021708462 -0.01998713 0.025504468 -0.007979469
-0.4368439 0.061187405 -0.27717718 -0.23577315 0.48660174 -0.5690632 0.81330943 0.29603997
-0.002215426 0.014322873 -0.016412754 -0.01468193 0.001152096 0.012636756 0.003932513 -0.01195486
-0.24059804 -0.13426104 0.26667 0.2846489 -0.03129285 0.018320078 -0.320263 -0.5442786
0.25421846 0.3021542 -0.26029354 -0.087009914 0.25490776 0.28543693 -0.397109 -0.20056121
-0.1990632 -0.12778418 -0.059139516 -0.025373923 -0.314034 -0.35445085 0.22276744 0.03349854
0.027169608 0.015692681 -0.00774636 -0.011391474 0.0054802457 -0.008451269 0.0026497745 0.016038766
0.096230984 0.2269008 0.19212031 0.4730189 0.40424368 -0.28937536 -0.017113265 -0.21216138
0.26682895 -0.5353252 0.45421126 0.15692765 0.25575915 -0.19995825 0.16710092 0.6002988
0.29236084 -0.09478934 0.06889324 -0.102296166 0.21893701 -0.21364191 0.10625291 -0.3132643
-0.2677784 -0.73143244 -0.31190917 -0.3304322 -0.4824943 0.37448642 0.4387121 0.53023386
0.0024165218 -0.02613464 -0.004077417 0.008673379 -0.012775875 0.0042139627 -0.0003912042 -0.03249283
-0.13482454 -0.1852447 0.31132692 -0.08618332 -0.030921595 0.23191737 -0.08841092 -0.27807102
-0.3576721 0.5296071 0.21699567 0.20085986 -0.18675983 0.085295945 0.2933704 -0.4572129
0.21681373 0.05836519 0.36895707 -0.31093845 -0.08802082 -0.42335072 0.33614698 0.09444552
-0.42078322 -0.62931705 0.43812668 0.50393003 -0.29695395 -0.19432497 -0.18741153 -0.37574238
0.024115182 0.021841535 0.0019905278 -0.0364938 0.06149686 -0.027096704 -0.062363002 -0.056174215
0.0023040571 -0.0035410633 -0.0045840642 -0.0075801928 0.012071348 0.0062977374 -0.032622952 -0.012615939
-0.4170399 -0.21712269 -0.31054816 0.07701344 0.0463409 -0.29884198 0.08530465 0.093862765
-0.0012870901 0.008096581 0.03981027 -0.008355081 0.005898535 0.0050867577 0.005774631 -0.009471716
-0.42040792 0.34766737 -0.0727994 0.5980754 0.32322425 -0.12470403 -0.51730174 0.3086556
-0.11799721 0.11919866 -0.16844194 -0.57764375 -0.25898644 -0.6508976 -0.16773544 0.049513217
0.0069913613 0.110840835 0.09260066 0.16362855 -0.014715997 0.299127 0.23175889 0.04747438
0.0008661687 -0.010378333 0.034385055 -0.001250977 0.00051133084 -0.027342344 -0.002777532 0.0407902
0.52454233 -0.36959437 0.37045515 -0.099498935 -0.101204194 -0.2538113 0.27761537 0.34366843
-0.019204484 0.0073154545 0.014530984 0.017186107 -0.0082744565 -0.0104829455 0.015215301 -0.015123644
-0.3677468 0.44406703 0.6548703 -0.6597636 -0.14690425 0.39463633 -0.42078948 0.011533088

input_proj.bias f4 [128]
00000000: 614e 4bc0 819b 89c0 968c ccbd dec0 91c0
00000010: 6fd7 b73c a53d 13c0 4c5d 9f3e bc48 6c3d
00000020: 6e31 8840 565a a53f 8fbc fb3f e4b2 21be
00000030: dbf7 8340 fb86 b440 7eb9 bb40 a617 6d40
00000040: a777 b6be ac08 4640 f1d2 3c40 9ab8 f840
00000050: c4b0 d940 130e 5740 ce49 04be bae6 9340
00000060: 270a e0be 72ca a1c0 0ea4 b740 4d59 7e40
00000070: 2e6c 533f 97e3 c83d 9d62 0abe 0e82 5cc0
00000080: 1b45 93be a0ca 6d40 0453 e140 3254 6340
00000090: 971e d53a 17d4 28c0 65f8 023f 3f36 cbbd
000000a0: ccd4 e53e 00cf 3c40 e488 0fbe 3334 adc0
000000b0: 7d00 56c0 c8a8 68be 6d5b 7ec0 ed73 a9bd
000000c0: cdca 36bf f272 70bd 8e42 53bf 900f 71c0
000000d0: e63d 45c0 8ad4 d63d bf99 08c0 bffe 3abe
000000e0: 164c adbc dc7a 77c0 81e1 21c0 58d9 13bf
000000f0: a2f1 21be d42d 6fbe 5d07 7040 4ab4 8340
00000100: 60ca c2bd 06f0 b0c0 09d2 50bf 47c0 20c0
00000110: bb1c 5440 0fba 8540 3bbe eabd 7c81 5bc0
00000120: ec73 9240 490e 9b3d c4c1 0abe 4a99 cdbe
00000130: 610f f5bf cfce 9cc0 6cca 6640 dd4e 3fbe
00000140: 2a19 9c40 91d9 a3c0 ea6c 5e3f 6071 b840
00000150: cbc7 d4bd bd20 9bc0 6215 f83f 3822 c3be
00000160: f782 7abd 1a7b 2740 ca03 9bc0 b9ef af40
00000170: 7d30 8bc0 7e56 293e 1527 f8bd 1a33 3940
00000180: 64e1 2940 764b 65c0 0246 6740 3582 9ec0
00000190: 5664 30c0 82e2 4640 4901 62c0 4053 c3c0
000001a0: 8488 5dc0 d871 8fc0 8809 fd40 c807 21c0
000001b0: 09a8 9b40 792d 56c0 945e 60c0 0263 b2c0
000001c0: 98c5 fe3f a03d 3cc0 f9ca 1040 06f6 7fbe
000001d0: c86a 3040 9df4 4240 b10d c3bd aa9a 0dbe
000001e0: 862e 8640 7cd3 84bf 16eb 12c0 a9b4 51bf
000001f0: 7cd2 6440 184f 78c0 19c7 85bd ae6b 87c0
-3.1766589 -4.3002324 -0.09987752 -4.5547934 0.022441594 -2.3006375 0.31125867 0.057686552
4.256034 1.2918193 1.9666919 -0.15790898 4.124006 5.641477 5.866393 3.7045684
-0.35638162 3.0942793 2.9503748 7.7725344 6.802828 3.360234 -0.12918779 4.621915
-0.43757746 -5.0559626 5.738776 3.9742005 0.82586944 0.09809034 -0.1351418 -3.445438
-0.2876366 3.7154922 7.0413837 3.5520139 0.0016259727 -2.637945 0.5116027 -0.09922456
0.44888914 2.9501343 -0.14017063 -5.412622 -3.3437798 -0.22720635 -3.9743302 -0.08274064
-0.714032 -0.05870337 -0.8252343 -3.7665749 -3.081903 0.10489757 -2.134384 -0.1826124
-0.021154445 -3.8668737 -2.5293887 -0.57753515 -0.15814832 -0.23357326 3.7504494 4.115758
-0.09511256 -5.5292997 -0.8157049 -2.5117357 3.3142536 4.178962 -0.11462065 -3.429778
4.5766506 0.07571084 -0.13550478 -0.40156013 -1.9145318 -4.900245 3.6061049 -0.18682428
4.878072 -5.1203084 0.8688494 5.7638397 -0.1038967 -4.8477464 1.9381526 -0.38112044
-0.061160054 2.6168885 -4.8442125 5.498013 -4.349669 0.165369 -0.12116829 2.893744
2.6543818 -3.5827308 3.613648 -4.9533944 -2.756124 3.107575 -3.5313284 -6.1039124
-3.4614573 -4.482647 7.9074135 -2.5161 4.864262 -3.3465254 -3.5057726 -5.574586
1.9904051 -2.9412613 2.2623885 -0.24996194 2.7565174 3.04618 -0.09524096 -0.13828531
4.193179 -1.037704 -2.2955985 -0.8191629 3.575347 -3.8798275 -0.065321155 -4.2318945

convs.0.bias f4 [128]
00000000: 9a3b 02bc 7c6b 663a b5ac 04bd 529f 1d3c
00000010: ec9e 093a 4c01 6ebb 6450 0fbb e931 9f3b
00000020: 7f87 b4ba c924 e63b 5f27 06bb 45e8 733a
00000030: 311d 44bc 0720 dfba d43f 91bb a272 4ebc
00000040: 4fcf 10bc ac54 cc3b 52d1 29ba 19af 733a
00000050: 50ed 63bb 0843 d6bb a6e1 ac3b 1959 afbb
00000060: f215 5fbb a5bd b7b9 e3ab fdbc 21a4 583a
00000070: c6a6 ffb9 9f28 d5bb f444 3c3c 9b3a 133c
00000080: 87d1 2e3c 42df da3b aa0e 9fbc ca9c e33b
00000090: bade 69bc e829 71b9 4e3a 9eb9 44bb ac3b
000000a0: f4b3 2e3b 7f14 ed3b 44d8 23bc d0bd 4d3c
000000b0: 4e72 44bc f25c dd3a aeed 1e3c 7623 213b
000000c0: 6de4 b83c 6d43 bdbb 70f6 ad3a 6f1c 2638
000000d0: 676c 1dbc 9d29 b53b 57a4 963b 08ad 40bc
000000e0: 2080 663b dc07 283c 6efc 5c3b 0282 c93b
000000f0: 41f9 a63b 535f 123b eaaa 103c 38da 863b
00000100: 7a13 65bc e11c 4c3a 8132 bf39 e11d 20ba
00000110: 7b36 9cbb defb 7cba 7b8e 013b d8df 67bb
00000120: 34a1 153b f9ac 5b3c 5313 64bb 48df 163c
00000130: b0e3 97ba c049 d0ba a061 72bc c657 073c
00000140: e030 013c d382 103c 1bf2 573b b2ae 7aba
00000150: 7425 5e3b f8c6 9dbb 5830 aa39 0bc3 12bd
00000160: 8c69 813b 72fb b73b 9c2e 133c 7837 1b3b
00000170: dc80 3fb9 5c0c d23a bbd2 dfbb 16f4 103c
00000180: 7588 8a3a b828 49ba b0aa 4f3b 9d46 273b
00000190: 2979 e1bb 44e3 763b 2238 0e3b c28c 4fbc
000001a0: 9767 c6b9 6c3c 61bc f134 18bd 805f 7bbb
000001b0: 5af4 86bb c70e 11bc 510e a23b 3a8e 6b3a
000001c0: b50d 6bbb df8b a23b 0d27 963c a9f2 dcbb
000001d0: a886 7fbc 41ae ef38 04bc fcba 8631 323c
000001e0: 5ec3 a1bc 59bf 863b b3c6 e73b 478f 1fbb
000001f0: 2610 813c 837b c03b 7c48 0b3b 55ae ef3a
-0.00794878 0.000878982 -0.03239127 0.009620504 0.00052498165 -0.003631669 -0.0021867985 0.0048582447
-0.0013773291 0.007023428 -0.0020470244 0.0009304325 -0.01196985 -0.0017023095 -0.0044326577 -0.012600573
-0.008838489 0.0062356796 -0.00064780295 0.0009295806 -0.00347789 -0.0065387525 0.005275923 -0.0053511974
-0.003404018 -0.00035045776 -0.030965751 0.0008264203 -0.00048761646 -0.0065050866 0.011491049 0.008986141
0.010670072 0.0066794464 -0.019416172 0.006946181 -0.014274294 -0.00022999162 -0.0003017955 0.0052713472
0.0026657553 0.0072351093 -0.010000292 0.012557462 -0.011990143 0.0016888662 0.009700222 0.0024587787
0.02256986 -0.00577586 0.0013272297 3.9603965e-05 -0.009608365 0.0055286423 0.0045972276 -0.011760004
0.0035171583 0.01025578 0.0033719796 0.0061495313 0.0050956313 0.002233465 0.008829812 0.004115369
-0.013981694 0.0007786286 0.00036467987 -0.0006107968 -0.0047672368 -0.0009650568 0.0019768763 -0.0035381224
0.002283168 0.013407939 -0.0034801557 0.009208508 -0.0011588242 -0.001589112 -0.014793783 0.008260673
0.007885188 0.008820253 0.0032950703 -0.0009562775 0.0033896836 -0.0048149787 0.00032460946 -0.03583054
0.0039493497 0.0056146914 0.0089832805 0.0023684185 -0.00018263183 0.0016025412 -0.006830541 0.008847257
0.0010569232 -0.0007673609 0.003168743 0.0025524267 -0.0068808985 0.0037672082 0.0021700938 -0.012667837
-0.00037842683 -0.013747316 -0.037159864 -0.0038356483 -0.0041184844 -0.008853621 0.0049455543 0.0008985732
-0.0035866324 0.0049605216 0.018329168 -0.0067427945 -0.015596069 0.000114288654 -0.0019282107 0.010876065
-0.019746479 0.004112166 0.0070732473 -0.0024346875 0.01575477 0.0058740987 0.002125292 0.0018286208

convs.0.lin.weight f4 [128, 128]
00000000: be7c b8be 5f3a e43e 7488 063d c478 9fbd
00000010: 3188 02be bbce 503f 8178 e6be 9291 4e3e
00000020: 7813 f8be 035d b63e 3bc1 39bf 0d42 2ebd
00000030: abb3 22be 032c eabe 5d0e babe dad3 abbe
00000040: 1294 e73d 8b2c 5cbf 97b8 a9bf 7174 95bf
00000050: 8526 51bf 42a2 57bf 91de 843e 8fb3 18bf
00000060: 4768 cf3f 5a05 143f a420 72bf 4ec8 5bbf
00000070: 6744 0dbe 51ee 563e ff91 a33d 9bd1 0cbe
00000080: 9c74 b83e 734a 883e 5220 803e 4b85 b2bf
00000090: 65e9 10bd 3128 fa3e 46cb e13e 7847 aa3c
000000a0: f6fd 1dbf 7aee c9be 6391 11be e903 c93f
000000b0: babf 733f 7c10 a2be 8f73 0b3f 2949 1fbe
000000c0: 1380 af3e 2f6e 573e da34 a83d ca24 583f
000000d0: cfaf 2d3f f171 a5bd 94f8 8a3e 0d57 ecbb
000000e0: ed90 28be c9ef 35bd 5424 4bbd 4071 003f
000000f0: 5acc cc3d 85a2 833f 7f69 d0be 7bd6 06bf
00000100: a4cc 80bd e24a cb3f c04f b93e d509 823e
00000110: 0bd5 263e 53fd d13e 687f 783d 0f80 a63f
00000120: e232 5abf 98b1 5d3d bded cd3d c643 5d3f
00000130: 0c50 f43f 3680 9c3f 7f0d 473d 1851 9c3b
00000140: 4ad6 d8be e77f 513f 14ed 073d 114c 85be
00000150: e742 cb3d e9cf 6b3f f355 583e 75fe c13e
00000160: cb6c 203f 4149 bcbd b4e3 163e 3cd5 efbc
00000170: 69c7 d33f 645e 0e3e 663c e73d 7465 64bd
00000180: c41c 9cbf 1bcb 9b3f a839 73bf f641 c33f
00000190: 24d2 3e3f 3f90 6abf 8fa9 cf3f 5bfd 6e3f
000001a0: 174c ff3e 996f da3c 9171 8cbf a60b 7b3d
000001b0: bd3a 4bbf 8b85 ab3f 61e1 b13f 6639 c33f
000001c0: ff33 093d 8237 e43e b9c7 073e c485 103f
000001d0: cfbf 6bbf f216 06bf 59bb 133e 05d5 343e
000001e0: c90e 63bf 5810 1b3d 99a4 203e 8b75 773f
000001f0: b40b 613e 3d1b a83f db82 61bd 6fd7 103f
00000200: 32a6 d4be 6ce7 68bf 312d 2e3f 7263 34bc
00000210: 0186 513e 5e9b 0cbf ee84 8dbf 7b0e 17bf
00000220: 0d87 db3e 8d5d ce3f 4678 9fbe f951 e03e
00000230: c642 583e 40fa a4bf 023f 4c3f eaec 76be
00000240: 4368 08be 8af1 133f a605 2e3e 71e6 593f
00000250: c796 1e3f 48fd 113f 3036 843f 590e 6bbe
00000260: e556 683e a5f2 44bf 629a 343f 604d 813d
00000270: 634f 94be bbec 70bf 963c 86bd bda7 9c3d
00000280: 5356 243f 43b7 753f 2962 173f 4f20 143e
00000290: a736 c23e b943 8a3d 5f3e 873f e0bd 953d
000002a0: 7008 a4be cf9d 13bf 236e a03e 55bb a93f
000002b0: e21d 0fbf aa3d 063f e5cb 51be 6b1f 6fbe
000002c0: f221 3fbe ad48 a93f 2b40 d43c 7d55 bdbe
000002d0: 975b 4a3f fc1a 0a3e 6f69 c9be 8d64 7b3f
000002e0: 3480 8b3d cd64 59bf 2f20 e8bf a5ce 1f3f
000002f0: 7edb b43e 37f4 013f ccd9 8c3f 0fcb b4be
00000300: 937b 073f ca67 03bf 9951 b33e 02c9 4bbf
00000310: 6de9 bc3f d357 833f 4d49 2cbd 1748 2abf
00000320: 7891 2a3f 5f7b 963f b757 a93e ba9f 78bf
00000330: c68c 1f3f d56d cdbe a8d6 5a3f fac5 9cbd
00000340: a01f 4dbd b5fd abbd 1884 c8be 6646 74bf
00000350: 41d1 423f 187e 0ebe f9d7 043f afaa ec3e
00000360: fbb0 483f e660 463f ad6c 50bf 5ad5 853f
00000370: 3bde c2bb adc6 64bd 7280 923f 85d0 21be
00000380: b073 903e 51f7 35bf c770 5e3f 0fb6 9fbd
00000390: c118 c43e 35f4 28be c487 7c3f 7f27 653e
000003a0: 2b91 4abf 4189 49bf d64e b43f 1b56 1fbf
000003b0: 9b29 60bd ea13 4b3e cd7e 12bf 567d e7be
000003c0: 18fa 1dbf 0405 47bf 31df 1eba f09a aa3e
000003d0: ae51 0cbf 50de e03d 43b9 6f3f eaa9 c23f
000003e0: 5275 e93e 0d73 8a3e 7e0f 5cbf 49be 853f
000003f0: 4f2c 0b3f bbdf bb3f 2ddc 2b3f 0fca ae3f
-0.3603267 0.44575784 0.032844976 -0.07786706 -0.12747265 0.81565446 -0.45013812 0.20172718
-0.48452353 0.35617837 -0.7256047 -0.04254346 -0.1588885 -0.45736703 -0.36339083 -0.33560067
0.11307539 -0.8600547 -1.3259457 -1.167616 -0.816994 -0.8423196 0.25951055 -0.59648985
1.6203698 0.57820666 -0.94581056 -0.85852516 -0.13795625 0.20989348 0.07986831 -0.13751833
0.36026466 0.266193 0.25024658 -1.3946928 -0.035378832 0.4885879 0.44100398 0.020786032
-0.6171564 -0.39439756 -0.14215617 1.5704318 0.95214427 -0.31653202 0.54473203 -0.15555252
0.342774 0.21038125 0.08213206 0.84431136 0.6784639 -0.08078373 0.27142775 -0.0072125257
-0.16461535 -0.04441813 -0.049595192 0.50172806 0.099999145 1.0283972 -0.40705487 -0.5267102
-0.06289032 1.5882227 0.36193657 0.25398126 0.16292207 0.41013584 0.06066838 1.300783
-0.8523389 0.054124445 0.100551106 0.8643154 1.9086928 1.2226627 0.048596855 0.0047704093
-0.4235099 0.8183579 0.03318508 -0.26034597 0.0992487 0.9211412 0.21126537 0.37889448
0.62666005 -0.091936596 0.147353 -0.029276483 1.654523 0.13903195 0.11290817 -0.055760816
-1.2196279 1.2171358 -0.9500985 1.5254505 0.745394 -0.9162635 1.622362 0.9335534
0.4986274 0.026664542 -1.0972158 0.061290406 -0.793865 1.3400129 1.3896905 1.5251892
0.033496853 0.445736 0.13259782 0.5645411 -0.9208955 -0.5237876 0.14426936 0.17659386
-0.88694435 0.037857383 0.15687789 0.9666373 0.2197712 1.3133312 -0.055056434 0.56578726
-0.41533047 -0.9097812 0.68037707 -0.011010038 0.20461275 -0.5492457 -1.1056192 -0.5900647
0.42876473 1.61223 -0.3114645 0.4381254 0.21119222 -1.288887 0.7978364 -0.24113813
-0.13321023 0.57790434 0.16994342 0.8511725 0.6194882 0.570271 1.0329037 -0.22954692
0.22689398 -0.76932746 0.7054807 0.06313586 -0.28966817 -0.9411122 -0.065545246 0.07649181
0.6419422 0.9598276 0.59134156 0.1446545 0.3793232 0.06751198 1.0565909 0.073116064
-0.32037687 -0.5766267 0.31334028 1.3260294 -0.5590497 0.5243784 -0.20487936 -0.23351829
-0.18665293 1.3225304 0.025909504 -0.36979285 0.79046005 0.13486856 -0.39338252 0.98200303
0.06811562 -0.84919435 -1.8134822 0.6242469 0.3532371 0.5076327 1.1003966 -0.3531117
0.52922934 -0.51330245 0.35023192 -0.7960359 1.4758736 1.0261177 -0.042062093 -0.6651625
0.6662822 1.17564 0.33074734 -0.97118723 0.6232418 -0.40122858 0.8548379 -0.076549485
-0.050078988 -0.08398 -0.3916328 -0.9541992 0.76100546 -0.13915288 0.5189205 0.4622397
0.7839505 0.77491605 -0.81415826 1.0455735 -0.005946902 -0.055853534 1.1445448 -0.158022
0.28213263 -0.710805 0.86890835 -0.07798397 0.38300136 -0.16499408 0.9864466 0.22378348
-0.7912776 -0.7872506 1.4086559 -0.6224076 -0.054727178 0.19831815 -0.5722473 -0.4521281
-0.6170974 -0.7774203 -0.000606048 0.33321333 -0.54812133 0.10979903 0.9364206 1.5208104
0.4559732 0.27040902 -0.8596114 1.0448695 0.54364485 1.4677652 0.67132837 1.3655413

convs.1.bias f4 [128]
00000000: 7a6e ccbc 52e0 c93c 5cdf b63c d75e 7f3d
00000010: de09 bcb9 a2d0 143d 348e c3bc 6620 9e39
00000020: 7286 933d a28c c1bc 0151 b9bb 2ae3 bcbc
00000030: fd63 74bc b375 fbbb c97f 8f3c f285 cbbc
00000040: c8ae 933d 4471 063d 0e48 0aba 53f7 c2bd
00000050: b7f8 efbd f9b1 713d b310 d53c 3f60 cebc
00000060: a3dc 34bc f10b debc 68f4 5e3d 98dc d63b
00000070: 6e80 943d 034a 013d 2959 e2bc 7aff 3cbc
00000080: eade 8ebb d7ce 77bc da46 6fbd cb60 f93b
00000090: df2c 3b3d d28a 9d3d 9cf5 a1bb 8e08 a13d
000000a0: d287 193d ced0 2f3d 9104 d73c 6f98 c93d
000000b0: 6d1e 983c 0ca6 343d 6c7f 02bd 887c d13d
000000c0: 17ea e53a 62d5 423d 36a0 c1b9 62d1 223d
000000d0: ee43 b73c 73e9 09b9 af2c 28bd 5750 9f3c
000000e0: ab15 7b3d 038c ba3c e2aa 21bc 3740 d0bc
000000f0: 62be d93c 02d4 aebc ed75 8e3c 09a4 edbb
00000100: d919 133d 46bd b33c d4af 353d a64f a7bd
00000110: b7dd 23bd 76c4 45bd 42e3 40bd dde5 00bd
00000120: 98c5 1b3d c717 643d e826 a33c fe80 a63d
00000130: dad6 b63c 6a87 8d3d 8426 d4bc e461 46bd
00000140: bd20 3c3d 2652 983d e02f c73c 77f5 c23d
00000150: 4ebd 1b3c e3e3 aa3d a962 c43c 3f8a 5b3c
00000160: 2185 b93c b210 8b3c acee 2f3a 9aee 9e3d
00000170: cc93 07bd b0b5 eebd be00 633c 66d8 da3d
00000180: a3e8 dc3c 9998 8abd c07e ba3b dbb5 643c
00000190: 12a9 ba3c 044d b6bd dba2 1f3d a92e 34bc
000001a0: 9a01 803d b7a1 42bd 1697 90bd ae4f 633c
000001b0: c875 9e3d 59f9 50bc e7f8 e13c ebbe c1bd
000001c0: 0463 7b3c 643c 40bc 73e0 e9bc cac2 0dbc
000001d0: 9248 2c3e 9fd0 6bbb 9a37 353c 2912 a03d
000001e0: f387 ac3c ce4f 6ebd f67c c73c 45cd d63c
000001f0: 806a 743d fa6a 4bbc 18ec 1c3d 3987 0dbe
-0.024955023 0.024643097 0.022323303 0.062346306 -0.00035865506 0.03633178 -0.023871519 0.00030160247
0.07203378 -0.02362663 -0.0056554084 -0.023057539 -0.014916417 -0.007673943 0.017516987 -0.024844144
0.07211071 0.032822862 -0.0005275019 -0.095198296 -0.117173605 0.05900762 0.02600894 -0.025192378
-0.011038932 -0.027105303 0.054432303 0.0065570585 0.072510585 0.031564724 -0.027630406 -0.01153552
-0.0043600695 -0.015124998 -0.05841718 0.0076104156 0.04569709 0.076924935 -0.004942609 0.0786296
0.037483044 0.04292374 0.026247295 0.098435275 0.018569196 0.044103667 -0.0318598 0.102288306
0.0017541078 0.04756678 -0.00036931195 0.039750464 0.022371259 -0.00013152305 -0.04105824 0.019447489
0.06129996 0.02277184 -0.009867402 -0.025421245 0.02658004 -0.021341328 0.017390216 -0.0072522205
0.035913322 0.021940839 0.044357136 -0.081694886 -0.040006366 -0.048283063 -0.04709173 -0.031469215
0.038030237 0.05568674 0.019916013 0.08130072 0.022319246 0.06910594 -0.025897272 -0.0484332
0.04592966 0.074375436 0.02431482 0.09519475 0.009505583 0.08344247 0.023972826 0.01339966
0.022646489 0.016975734 0.0006711285 0.077603534 -0.033099934 -0.11655748 0.013855157 0.10685806
0.026966399 -0.06767387 0.0056913793 0.013959373 0.022785697 -0.08901408 0.03897367 -0.010997453
0.062503055 -0.047517505 -0.07060067 0.013873978 0.07737309 -0.012754762 0.027584506 -0.09460243
0.015343431 -0.011733148 -0.028549409 -0.008652398 0.16824558 -0.0035982502 0.01106062 0.07815964
0.02106092 -0.058181576 0.024351578 0.026220927 0.05967188 -0.012415642 0.038311094 -0.13821115

convs.1.lin.weight f4 [128, 128]
00000000: 9954 4fbf 4dd7 79be 8723 dbbf cf2b bb3e
00000010: aeb8 a8be 61b0 c5be e655 c93d 6904 f4be
00000020: 210d a5bf c594 8c3f eb54 65bf 430f 2dbf
00000030: c9b1 b7be 919b 27bf b2b7 4abf 3f0e 47bb
00000040: bb7a 39bf e369 4fbe 4462 473f da7b bbbf
00000050: a9bd 9bbf df57 c03d 652d 9cbe b0e0 04be
00000060: ae06 02bf 5ed7 d83f 829b afbf e3a9 3e3d
00000070: fcf3 23be 0620 473e b631 2cbe 0a43 0cbe
00000080: 2260 d43d 7cfb a2bf bf09 00c0 8bec 37bf
00000090: d01f 89be 8ebd c8be 03d6 45bf 612f e3be
000000a0: cc5f ca3d 6e72 39bf e880 a0bf 7fa3 7bbe
000000b0: c760 afbe 90c8 0b3f 854a b43f 6e47 e63f
000000c0: bac1 af3e 6912 1ebf 6287 9ebe 3c92 bd3e
000000d0: 6717 35be 3409 aabe 22a0 e9be cd22 a9be
000000e0: 5279 143f 4bff 3f3f 468a 01bf b9de 0c3d
000000f0: c659 d2bd 0018 31bf bc8f 033f ce05 2ebf
00000100: 0f58 17bf 1f72 863f be90 3fbe 0e3d 90bf
00000110: 4379 17bf 60ab cbbf 5489 85bf bf51 1d3f
00000120: d5a8 b6bd 6ee8 92be 5e0d 96be 2214 0f3f
00000130: ab04 463f 2610 ea3f 594d a53e 34ac ac3e
00000140: 5ed1 0abf 57ed bf3e 9bf7 553e 657a cabe
00000150: c911 023f fb39 41bf 8492 2cbf b01d 893f
00000160: 420f 963e da8b b63f bbae 80be a81a 5abf
00000170: d2eb 90be d194 07bf a2a5 9a3e a351 9f3f
00000180: a9de 753e 3172 203f 71e3 81bf 7fb3 babe
00000190: 6aba a8be 549b cd3e dc2d 093f 5bc5 6b3f
000001a0: e32c 0a3e 2bd7 293e 7e3f 82bf 6cd6 163f
000001b0: 4245 57be bf1a 57be 7a3d 5a3f bf00 0c3f
000001c0: c1a8 cdbd c271 e83f 33ee 0ebe 7951 d13e
000001d0: e50a 643e 5315 f13e 95f9 a93c 5d3d 04be
000001e0: 5f88 05bf 2c7d eb3e 2422 a23d b108 113f
000001f0: 1c31 14bd 5aa8 0cbf e006 54bf 4730 383f
00000200: cf30 f6bd 4be4 34c0 27c4 703f cd8a 7fbf
00000210: d8ba 15bf 084e bfbf 464c 9bbc f4ad 4f3f
00000220: 6ac6 883f 30b2 9d3e feb8 acbe feff 13bf
00000230: 23ee 6d3f 1090 ba3e 4367 563f 75f5 24bf
00000240: e580 56bf 0e0d 1e3f 9f38 00bf 3d44 2e3f
00000250: 1820 883f f5bb 42bc a46b 23bf c872 d9be
00000260: 21c1 1ebf 0691 3ebf 7a13 ae3e cda5 9abe
00000270: 05fc 213f ed10 08bf e7db 733e 1a9c 053d
00000280: 8e7b a93d 99b4 1b3f 199a 713e b443 1abd
00000290: f6d2 37bf 4970 9dbd 6965 afbe 406c 793f
000002a0: 8838 84be 9e36 f23e 73a7 463f bfa2 0dbd
000002b0: a8b5 06bf 6f51 5bbf fb1f 08bf 4596 a8bf
000002c0: ff56 103f 1dff 90be 0361 77bf 7d8e 9cbf
000002d0: b08a 5dbf ac6b a5be f8df 1abe 569c 063e
000002e0: 129b ae3e 8e02 9fbf 614c 27bf b95c 933e
000002f0: b21c 2d3e b72b 9a3c 453e 03c0 c34d 1c3f
00000300: dd66 edbd 5b7b 66be b1a8 19bf 9bf9 a2bf
00000310: 7d62 dd3e c13a 4bbe 456a 12bf 25cc 3fbf
00000320: e1af b43f 035d 373f 4575 933e ef88 f83e
00000330: 31ed ca3e 29be 5fbe aab9 acbf 2b2d b33e
00000340: 32e3 5c3e 517a 10bf 785f c3be 151f 3e3f
00000350: 3d02 babd da9f 3fbd 94d4 a83e 249a c2ba
00000360: be34 07be d9e5 ef3d e98e 81be 60a0 4e3f
00000370: e21f b0bc 958d d73d 86a9 f43a 3a77 18bd
00000380: 204d 72bf 4a85 403e fb7a fc3e 361d a93d
00000390: 2b2a fe3c a2bf 91be ab2f 4abf 15bb 053f
000003a0: 437f e7be dc0b a43f 3153 b13e cbb0 90be
000003b0: 1447 4b3f 68a7 7fbf f58a b43f 09e4 71bf
000003c0: a570 f2bd 85c1 2b3f 8e44 16be d53e aabd
000003d0: 6c90 da3e d764 473f 87a7 eabe 0126 4b3b
000003e0: ade6 ecbf 18fd e43d 6120 a23e f916 19bf
000003f0: f8c8 4dbe 435c 043d 3a1c 6cbe 33df ab3f
-0.8098846 -0.24398537 -1.7120217 0.3655686 -0.329534 -0.3861113 0.09830837 -0.47659615
-1.2894632 1.0982901 -0.895827 -0.6760141 -0.35877827 -0.6547175 -0.79186547 -0.0030373482
-0.72452897 -0.20255236 0.77884316 -1.4647171 -1.2167255 0.0939176 -0.30503383 -0.12976336
-0.5079144 1.6940725 -1.3719332 0.046548735 -0.16011041 0.1944581 -0.16815838 -0.13697448
0.103698984 -1.2732997 -2.0005949 -0.7184531 -0.26782084 -0.3920712 -0.7727968 -0.44372085
0.09881553 -0.7244023 -1.2539339 -0.24574088 -0.34253523 0.5460291 1.4085242 1.7990549
0.3432749 -0.6174684 -0.30962664 0.3702563 -0.17684709 -0.33210146 -0.45629984 -0.33034363
0.5799762 0.7499892 -0.50601614 0.034392092 -0.10271029 -0.69177246 0.51391196 -0.6797761
-0.5911874 1.0503577 -0.18707559 -1.1268632 -0.59169406 -1.5911674 -1.0432534 0.6145286
-0.08918921 -0.28692955 -0.29307073 0.55890095 0.7735087 1.8286178 0.32285574 0.3372513
-0.5422572 0.37485763 0.20895235 -0.39546505 0.5080839 -0.75479096 -0.67411065 1.0712185
0.29308516 1.4261429 -0.2513331 -0.85196924 -0.28304917 -0.5296145 0.30204493 1.2446789
0.2401072 0.6267424 -1.0147535 -0.3646507 -0.32954723 0.40157568 0.535856 0.92098016
0.13493685 0.16585986 -1.0175626 0.5892093 -0.21022514 -0.21006297 0.85250056 0.5468864
-0.10041953 1.8159716 -0.13958053 0.4088247 0.22269781 0.47086582 0.020748893 -0.12914033
-0.5216121 0.45993936 0.07916668 0.5665389 -0.036179647 -0.54944384 -0.8282299 0.71948665
-0.12021028 -2.826434 0.94049305 -0.9982117 -0.58488226 -1.4945688 -0.018957268 0.81124806
1.0685551 0.3080001 -0.33734888 -0.5781249 0.9294149 0.36438036 0.83751315 -0.6443704
-0.8379043 0.6173867 -0.50086397 0.68072873 1.0634794 -0.011885633 -0.6383612 -0.42470384
-0.6201344 -0.7444004 0.33999234 -0.3020462 0.63275176 -0.53150827 0.23814355 0.032619573
0.08275519 0.60822445 0.2359394 -0.037662223 -0.71806276 -0.07687432 -0.34257057 0.974308
-0.2582438 0.47307295 0.7759926 -0.034579035 -0.52620935 -0.8567113 -0.531738 -1.3170859
0.56382746 -0.28319636 -0.96632403 -1.2230984 -0.86539745 -0.3230871 -0.151245 0.13145575
0.34102684 -1.2422655 -0.6535092 0.2878168 0.16905478 0.018819673 -2.0506756 0.61056155
-0.11591885 -0.22507994 -0.6002303 -1.2732424 0.43239203 -0.19846632 -0.57193404 -0.74920875
1.4116174 0.716263 0.28800407 0.48541972 0.39634088 -0.21849884 -1.349416 0.34995398
0.21571043 -0.5643664 -0.38158774 0.7426618 -0.09082458 -0.046783306 0.32974684 -0.0014846963
-0.13203713 0.11713762 -0.25304344 0.8071346 -0.021499578 0.105250515 0.0018666245 -0.03722308
-0.94648933 0.18800846 0.49312577 0.08257525 0.031025967 -0.28466517 -0.78978986 0.5223859
-0.4521428 1.2816119 0.34633783 -0.28259882 0.7940533 -0.99864817 1.4104906 -0.9448858
-0.118378915 0.6709216 -0.14674589 -0.083127655 0.4268831 0.77888244 -0.45830938 0.0030997994
-1.8507897 0.11181086 0.31665328 -0.5980068 -0.20096195 0.03231455 -0.23057643 1.342749

convs.2.bias f4 [128]
00000000: 2dec 373d 95a1 b7bd 528f c03d 3ade 923c
00000010: d51b 5b3c 2620 753e f6b7 fbbb 7645 aa3d
00000020: 5eec 913c a7c4 33bd 1710 403e 072f 97bd
00000030: 8dd3 c93c aa46 d73b ed8f f03b 92a2 fa3c
00000040: 2777 3b3e ea32 2d3e 4316 18bd dd91 19bb
00000050: 8615 3abc 626f 28bd 866f 29bd f742 edbc
00000060: cfa5 1abc bb2b a2be 85fb 0dbc c923 0f3c
00000070: 765e 90bc fada 433d 98cd ff3c fd8d 723c
00000080: 15d9 0dbc 91cd b43c 175b 3f3b 7023 cf3d
00000090: 1e14 8cbe ce65 15bd 4cc5 4cbb bc98 87bd
000000a0: d0fc 233d 21ea edbc 9575 043d 1449 37bc
000000b0: 807c ba3d da39 2dbd 3e58 283d 21ab 303e
000000c0: 3baf b8bc a7b0 8e3e 7ea1 ad3c cdcf 653c
000000d0: 262e db3d 06a0 e63d d794 683d b33a 83bc
000000e0: 86b8 c83c 5514 25bd 5f6c 54bc 2a3e 073b
000000f0: 03dc 5bbd 19ff 423d e06d 12bc c69a 1a3e
00000100: 330b 39bd 8f3e bf3b b7d8 3a3b a2ad cd3c
00000110: 87cb 1b3d 7f78 a2bd a321 1fbc 8ed1 963c
00000120: 35e3 9cbc d416 f43c 69e6 3ebd f526 223d
00000130: c840 b7bd 9d89 90bd a9c0 4fbc b476 5cbc
00000140: 3961 fd3d 3c04 46bd 8ba0 88ba 496c e3bc
00000150: 18a5 913d 8673 243c 5a9c 9dbb a820 9a3a
00000160: 88cd cf3c 4026 86bd 9521 3abd 8ca3 98bc
00000170: c6b2 34be 996e c8ba 2ecc d83d a3e1 01bd
00000180: b6df 5bbd 1bb6 833d e7fd 853c f9e7 683d
00000190: d642 84bc 3b1b 193d b02c 453c 699a 37bc
000001a0: 4184 a7bd 379f 073c 648e 483c 622f 2bbd
000001b0: 5ccd e03a 16f9 c0bc 10ca 1cbc 3fb9 78bd
000001c0: 9fd1 9e3b 95ba 16bc 5907 db3b 26be ed3c
000001d0: 8f47 2abd cfb7 a1bc 378f 14bc 9fdc 823d
000001e0: 63ae 8ebc fde3 b23a 13f5 dd3c 913b 5e3c
000001f0: 5139 afbc 2b54 0abd d91c d1bd 710f 5abe
0.04490297 -0.08966366 0.09402336 0.017928232 0.013373335 0.23938045 -0.007681842 0.0831403
0.017812904 -0.043888714 0.18756138 -0.07382017 0.024637008 0.006569703 0.007341376 0.030595098
0.18307172 0.16913953 -0.037130605 -0.0023432889 -0.011357671 -0.041121848 -0.041366123 -0.028962595
-0.009438946 -0.3167399 -0.008665924 0.008736559 -0.017623167 0.047816254 0.031225964 0.01480436
-0.008657713 0.022070678 0.002919858 0.10114181 -0.27359098 -0.03647404 -0.0031245528 -0.06620929
0.040036023 -0.029042305 0.032338697 -0.011186857 0.09105778 -0.0422915 0.04109978 0.1725278
-0.022544494 0.2786915 0.02119517 0.014026594 0.107021615 0.11260991 0.05678257 -0.0160192
0.02450205 -0.040302593 -0.012965291 0.0020636418 -0.053676616 0.04760656 -0.008937329 0.15098104
-0.045176696 0.005836315 0.002851052 0.025107209 0.038035896 -0.07933139 -0.009712609 0.01841047
-0.01915131 0.029796042 -0.046606455 0.039587934 -0.08947903 -0.07057498 -0.012680211 -0.013456035
0.123720594 -0.048343882 -0.0010423822 -0.027761595 0.07111567 0.010037309 -0.0048098983 0.0011759
0.02536656 -0.06550264 -0.045442183 -0.018632673 -0.17646322 -0.001529175 0.10585819 -0.031709325
-0.053680144 0.06431218 0.016356422 0.05686185 -0.016145151 0.037379485 0.01203458 -0.011206248
-0.08179522 0.008277706 0.01224098 -0.041793235 0.0017151046 -0.023556273 -0.00956966 -0.06072354
0.004846766 -0.009199758 0.0066842255 0.029021334 -0.04157215 -0.019740967 -0.009067348 0.063897364
-0.017417138 0.0013648268 0.0270944 0.013564006 -0.021389635 -0.033771675 -0.102105804 -0.21294953
