graph_ddpm_qm9.pt (torch, 620981 bytes, 10 tensors)

t_mlp.0.weight f4 [256, 64]
00000000: 0c21 083c b5d8 1bbc 7f8d 97bc 4ed8 ffbb
00000010: 53b9 393a 8145 303c 3d62 a23c 6d4f 113a
00000020: d09d c93c 3aff 80bc 6fcf 92bc bb2c 333b
00000030: 99a1 60bd 69b2 75bc 02e7 b0bd ab19 5c3d
00000040: dcba 903d 79e2 533d 0afd b93c 2c9d ce3a
00000050: 4eef 93ba 489b 103d 6e5c 7bba 6e76 503d
00000060: c7e6 86bc f3cc f8bc 9fc9 1c3e 54a4 313e
00000070: 2004 0e3e f83f ef3d 03ee 263e 187e 1b3e
00000080: 25a7 1ebd 9686 3fbc be22 783c fbe2 3f3d
00000090: fb1b 7f3d 2e15 1fbd cc4c bdbb db35 94bd
000000a0: 17f5 0bbc 1420 a0bc b2da 433d 424a 9dbc
000000b0: 3262 77bc 2be4 043d ce1b 233d 0d77 5f3d
000000c0: fea1 bdbb 8df8 063e e3b7 8cbd 12b0 f1bc
000000d0: 4ff7 99bd 21de 1fbd fcba b3bc 8d73 46be
000000e0: 27e1 2bbe 9c62 51be 2fb0 e8bc 8aa5 f3bd
000000f0: 9a7f 01be 499d 0dbe e10b 50bd 7500 39be
00000100: c94d 633c 0f78 f03c a113 cbbc 173b 02bd
00000110: 9040 4c3c 431d 45bd 28c6 51bc 788c 3ebb
00000120: 6c55 dabc 76b5 28bd 514c 8ebb 7af8 1c3c
00000130: 0c4a 9bbc 3aa4 52bb 61e9 f3bc 06fd 183d
00000140: a00f 833d 1029 a93d 16eb c9bd 8328 bebd
00000150: 8dd9 7c3d f809 743c 1fe8 043d b54b 3b3d
00000160: 8a41 4e3e 11a0 033e a854 d53c fca9 683d
00000170: e343 a43d 2821 b03b e3d4 343e 5a60 9f3d
00000180: 8841 31bd 38c0 c73b 99af 5fbb 69f1 6fbb
00000190: 326e 183c a91c c73c ffe0 763d 8bdc dbbc
000001a0: 07ad 0ebc 2278 453d 6cd6 d93c f12f 553b
000001b0: 53af a53c 8d30 d4bc ae99 0d3d c810 c03c
000001c0: 1cc7 193d e3b9 b23d 8f5d 933c 1702 c7bd
000001d0: 9a98 0fbe 44a0 86bc 01c2 18be d505 4bbe
000001e0: 4636 d6bd f74e 33be 61a2 10bc 4ec4 b8bc
000001f0: c8bd 14be 3adf 15be b5f8 9339 315f 41bd
00000200: c991 673d 543b 45bc 14df c9bd 263e c83c
00000210: 99be 36bb 82cf 3a3c 2498 00bd 0799 6abd
00000220: 49fa e6bc 325e 113d 9709 303d d7f9 4b3b
00000230: b21a 213d a962 c13b 2068 acbc 3ce6 783c
00000240: bad4 eb3c 86b7 19bc f4c7 9ebc 95d7 24bd
00000250: 5b35 e63d 8b97 973d 0bc3 873e 2311 823d
00000260: ccf0 8d3d 9446 8f3e 6b7e 783e 0173 883e
00000270: 6986 da3d d7ce 8a3e 09b8 d43d dac5 7a3e
00000280: e733 d23c c87c 8fbd 077d c83c 26b7 9c3d
00000290: 5c3d 55bd 964b e3bc 2f07 12bd 4887 3cbc
000002a0: e6e9 4bbb 18cb 273d 5ffe 32bd 946d 533d
000002b0: f959 573d 15a0 05be b70b 02bd 892b b93d
000002c0: 7382 883d 657c 673e 5a4d 3d3e 3ca4 383c
000002d0: 6012 74bd cd4a 5fbb 3aa9 88bd d583 83be
000002e0: e80e 1dbe d0e4 3ebe 6043 4ebe 7fe4 83be
000002f0: e514 21be 2f71 52be 2656 7abd 9767 54be
00000300: cdd9 463c 2f83 e43c 15fb 733d e059 1dbd
00000310: f2b3 3d3d 0791 953b 152c 59bd 74c4 81bb
00000320: ec41 f83c 2d2e 5e3d 8d11 75bc 8e9e 6ebd
00000330: 90b7 293c e4de 3c3d 6e49 c43b fb3e 2d3d
00000340: 1e19 f9bc a143 0dbc 3767 803d ed4d f4bd
00000350: cf04 5fbd 6065 f23c 50e0 44bd b7d2 983d
00000360: 1bd9 5abd a44d 143e 9c1e 9d3d ec86 36bd
00000370: fbd9 8bbd 8ec0 573c 5b06 503d 34e4 e43d
00000380: 7741 babd 6699 c4bc db11 f53b 6ad1 843c
00000390: eaa0 92bc 4368 10bd b609 453d 2e5d 77bd
000003a0: 1dd0 0d3d 106a d83c b420 713d 8518 f23c
000003b0: 032d c63c fe7f 663c f847 003e d98f a7bd
000003c0: 65cd afbd d9c0 833d 5742 9a3d 5dda 31be
000003d0: b86c 6dbd d6b2 62bd 75ab 66be baf7 103c
000003e0: aa9d 26be e91d 6cbc 0e28 48bc 63ba e1bd
000003f0: 9c79 b5bd e035 fdbb e79b 49be 934b 68be
0.00830866 -0.009512116 -0.018500088 -0.007807768 0.00070848054 0.0107587585 0.019822234 0.00055431464
0.024611384 -0.015746702 -0.017921178 0.0027339894 -0.05484161 -0.01499615 -0.08637811 0.053735416
0.070668906 0.051729653 0.022703666 0.0015763394 -0.0011286528 0.035304338 -0.0009588663 0.050894193
-0.016467465 -0.030371165 0.15311287 0.17347842 0.13868761 0.11682123 0.16301732 0.1518482
-0.03873362 -0.011689803 0.015145002 0.046847325 0.062282544 -0.038838558 -0.005776977 -0.072368346
-0.008542321 -0.019546546 0.047815986 -0.019200448 -0.015099095 0.03244416 0.03982144 0.054556895
-0.0057871332 0.13180752 -0.06871011 -0.029502902 -0.075178735 -0.039030198 -0.021939747 -0.19380017
-0.16785108 -0.20447773 -0.028404323 -0.118968084 -0.12646332 -0.13829531 -0.05079258 -0.1806658
0.013873526 0.029354123 -0.024789633 -0.031794634 0.012466565 -0.04812361 -0.012803592 -0.0029075425
-0.02665206 -0.04118868 -0.0043425937 0.009580726 -0.018956207 -0.0032141344 -0.02977437 0.037350677
0.063994646 0.08259785 -0.09859292 -0.09285071 0.06173091 0.014894955 0.03244793 0.045726497
0.20142189 0.12854029 0.026041344 0.056802735 0.08020761 0.0053750463 0.17659335 0.077820495
-0.043275386 0.0060959123 -0.0034131764 -0.0036612398 0.009303616 0.024305658 0.060273167 -0.026838562
-0.008708245 0.04821027 0.026591502 0.0032529796 0.020225203 -0.025902057 0.03457039 0.023445502
0.0375434 0.08726861 0.017988948 -0.097171955 -0.14023057 -0.016433842 -0.14917757 -0.19826443
-0.104595706 -0.17510591 -0.008827777 -0.022554543 -0.14525521 -0.14635935 0.00028223326 -0.047209922
0.056535516 -0.012038071 -0.09857002 0.024443697 -0.00278846 0.011402013 -0.031395093 -0.057274844
-0.028195517 0.035490222 0.042977896 0.0031124258 0.0393321 0.005901654 -0.021045744 0.015191611
0.02878796 -0.009382134 -0.019382454 -0.040244658 0.112406455 0.074019514 0.26515993 0.06350925
0.06930694 0.27983534 0.24266975 0.2665024 0.10670168 0.2711093 0.103866644 0.24489537
0.025659515 -0.07006222 0.02447368 0.0765212 -0.05206047 -0.027746003 -0.035651382 -0.011506863
-0.0031114756 0.04096517 -0.04369962 0.051618174 0.05257604 -0.13049348 -0.031749453 0.09041507
0.06665506 0.22606046 0.18486539 0.011269625 -0.059587836 -0.0034071684 -0.066729024 -0.25686517
-0.15337718 -0.18641973 -0.20142889 -0.25760266 -0.15730627 -0.20550989 -0.061117314 -0.20742641
0.012136889 0.027894584 0.059565622 -0.03841579 0.046314187 0.0045644077 -0.053020556 -0.0039601866
0.030304871 0.054243255 -0.014957798 -0.05825668 0.010358706 0.046111003 0.005990199 0.04229639
-0.030407485 -0.008622081 0.06269687 -0.11928926 -0.054447945 0.029589355 -0.048065484 0.07462066
-0.053429704 0.14482743 0.07671854 -0.044562265 -0.06828686 0.013168467 0.05078731 0.11176339
-0.09094518 -0.023998927 0.007478935 0.016213138 -0.017898995 -0.03525568 0.048104964 -0.060391597
0.0346223 0.026417762 0.05886908 0.029552707 0.024191385 0.014068602 0.12527454 -0.08181734
-0.08584098 0.06433267 0.075321846 -0.17368455 -0.05796501 -0.055346332 -0.22526343 0.008848125
-0.16271082 -0.014411428 -0.012216581 -0.110218786 -0.08861086 -0.0077273697 -0.19688378 -0.2268508

t_mlp.0.bias f4 [256]
00000000: 2dea 13be 1d81 f5bd 6b27 45be 3b60 44bd
00000010: edbb e1be cbd8 f6be 1cfd 1abe 7419 21be
00000020: c721 00bf beae 2bbe 5b2c a0bd c07f 4abe
00000030: 788e 49be da3d cbbe 29c3 5fbe 1437 06be
00000040: b374 c8be c1ed 01bf dc8a 49be 3a80 8cbf
00000050: d443 8cbd 42f7 c3bd e1fa 12be f53a 50be
00000060: 8edf 11bd e5a1 5fbe aece 98be e2b4 2ebe
00000070: 2f15 d0be 8a1e bebe ab72 b6bd 2409 66be
00000080: 5575 39be db68 43be 68bc 3dbe 7859 9bbc
00000090: 6429 12be 1fdd 30be 82aa ccbd c62e f1bd
000000a0: 1c9c 22be 8a7d 63be bf8c d23c 9035 1dbe
000000b0: b725 40be e801 12be 1bb6 97be 7668 c6bc
000000c0: b328 10bb cac2 aabc 9145 78be 2bec 5cbd
000000d0: 2fe7 81be 1055 15be dba6 24be 6410 f63c
000000e0: 9195 67be f2c7 273d 0399 02be 2fc3 1cbe
000000f0: cff8 ebbe 637e 2ebe bbed d7be 8ccf aabe
00000100: c2e4 72be aba1 60be 06eb 1abe be33 2bbe
00000110: 06e9 2fbf 8f62 d03c 24be 4cbe 2b29 dbbc
00000120: 6702 86be 5c8c a3be 7477 f6be 9363 c0be
00000130: 3233 78bd a207 73be e861 3dbe 8424 74be
00000140: 987d ffbe 9c90 7abe 0083 25be 0332 50bc
00000150: fa4f 0dbe f90e 06be c474 6abd 975f 60be
00000160: 118b 7bbe d71f 00bf ae24 40bd 45ad 81bd
00000170: 9f83 cdbe e46e 25bd 8303 94bd 15dc c5bc
00000180: a029 6fbe 0248 f7bd 5a13 71be 6f4f 29bd
00000190: eae7 03be 7b41 e9be b4dc 36be ae76 97bd
000001a0: bfb7 95be 8272 bbbe 3f62 98bd 76a2 30bc
000001b0: 3414 40be 3c99 14bf a54a 68be 5b5e c1bd
000001c0: ba19 46be 52a9 6cbd 1930 c3be 63fd 78be
000001d0: e968 84be f36c d73d 81a4 d6be da63 eebd
000001e0: 5593 3abf 513b c4be ab68 cbbe 2594 6cbd
000001f0: a560 28be 8649 49be 25e2 36be 334a 33be
00000200: db2a a0be 16a7 ddbd 55e3 15be 6dcc 203d
00000210: 88b1 15be 5918 f6bd 1dde 40be 22c3 30be
00000220: c53a 87be a544 46be 8ee1 83be e1be 69be
00000230: a9e4 bebd 41b9 3fbe 72f8 15be fbf9 85bd
00000240: 4b58 0ebe 25d9 c4be 8058 a1bd e378 08be
00000250: 1de2 9bbe 2abe c3bd 780d 1ebe d180 f2bd
00000260: c5d5 f1be 9668 35bd 2abb 42be 7beb 84bd
00000270: f3fb 5fbe beba 63bf b755 7cbe 2c89 06be
00000280: 1ae0 49be 99e2 cabe fd59 5cbd 1864 69be
00000290: b8a1 43bf 54de dfbd e70d 2abe 0025 d0be
000002a0: e944 9ebe 154a 14be 992e e9be fd54 b1be
000002b0: 16cf e8be e6f6 25be 1a93 cdbe a006 2dbf
000002c0: 4467 f3be f2a9 6ebe 006f f4be eee0 93bd
000002d0: 64da 25be 2551 d8be 0495 7abb fb65 25be
000002e0: 00b6 07be 7528 52be ba11 d2bc f9e2 50be
000002f0: 08c6 c0be 471e d4be 2575 5fbe 863a f8bd
00000300: 44a1 54be dfba c1be 4c6d 2ebf b3e2 83be
00000310: 127a f0be cb3e eabc c876 2fbe e367 67bd
00000320: a75d c3be 9f6b dcbe 082f 2dbe 1f27 00be
00000330: 7e87 55bd 9a58 d1be 5ad9 42bd 9a80 14be
00000340: 943c 07bd 5a65 4a3e 2cbb 28be 4f12 a7be
00000350: 78b8 c83a bb6f 0fbe aac3 26bf 5b57 dabd
00000360: 230f 73be 252c c7be 3075 4dbe 0484 81bd
00000370: db2c 3cbd 0761 babc 36a2 ccbd 9bfe 6bbd
00000380: e9f8 3bbd 2eac 5abe b8ca ccbe d77a 0fbf
00000390: 7399 4abe 7ff3 e5be 1c9a e3bd 4e9c 19be
000003a0: d76d 34bf ef28 09bf 4f7d babe 9aed 6bbe
000003b0: 24fd 39be 027d 11be 2ff5 6bbd 02ad 54be
000003c0: 6de8 2bbe 252f dcbc 16aa 0dbe 989e aabe
000003d0: 4441 b8bd aa8f ddbe d0ae d6bc 2d51 97be
000003e0: 6e4e 81be 4d76 72be d952 f8bd 1448 29be
000003f0: afc4 84be 059b 09be 5c6f bfbe 47be 16be
-0.144448 -0.11987517 -0.19253318 -0.047943335 -0.44088688 -0.48212275 -0.15135616 -0.15732366
-0.5005154 -0.16765878 -0.0782096 -0.19775295 -0.19683254 -0.39695626 -0.21851791 -0.13106948
-0.39151534 -0.5075341 -0.19681877 -1.0976632 -0.06848875 -0.09568645 -0.14353515 -0.2033499
-0.03561359 -0.21839102 -0.29845184 -0.17061189 -0.40641162 -0.37132674 -0.0890859 -0.22464424
-0.18111165 -0.19082968 -0.18528903 -0.01896356 -0.14273602 -0.17271851 -0.09993459 -0.117764995
-0.15879864 -0.22215858 0.025701879 -0.15352464 -0.18764387 -0.1425854 -0.29631123 -0.024219733
-0.0021996915 -0.020844836 -0.24245287 -0.053936165 -0.25371692 -0.1458323 -0.16079275 0.030037113
-0.22615649 0.040962167 -0.12753682 -0.15308832 -0.46088263 -0.170404 -0.4217356 -0.3336147
-0.23720077 -0.21936671 -0.15128717 -0.16718957 -0.6871494 0.025437621 -0.19994408 -0.026753029
-0.26173708 -0.31943023 -0.4813801 -0.3757597 -0.0605957 -0.2373338 -0.1849438 -0.23842055
-0.49900508 -0.24469227 -0.16163254 -0.012707236 -0.1380004 -0.13091649 -0.057240263 -0.21911465
-0.24564768 -0.50048584 -0.04690998 -0.06331877 -0.4013948 -0.040388957 -0.07227232 -0.024152795
-0.23355722 -0.12074281 -0.23542538 -0.04133552 -0.12881437 -0.4555777 -0.17857629 -0.07395683
-0.2924175 -0.366108 -0.07440614 -0.010780921 -0.18757707 -0.5804632 -0.22684725 -0.09441825
-0.19345751 -0.057778664 -0.38122633 -0.2431541 -0.2586129 0.10518827 -0.41922382 -0.11640139
-0.7288106 -0.38326505 -0.39728293 -0.05775847 -0.16443117 -0.19656953 -0.17859705 -0.17508774
-0.31282696 -0.10822885 -0.14637502 0.039257456 -0.14618504 -0.12016363 -0.1883473 -0.17261937
-0.26412025 -0.19362123 -0.25758022 -0.22826721 -0.09320957 -0.18723013 -0.14645556 -0.065418206
-0.13900869 -0.38446918 -0.07878208 -0.13327365 -0.30445948 -0.09557755 -0.15434825 -0.11840976
-0.47233406 -0.044289194 -0.1901671 -0.06490227 -0.21873455 -0.8895682 -0.24642073 -0.13138264
-0.19714394 -0.39626005 -0.053796757 -0.22792089 -0.7641864 -0.109310776 -0.16606866 -0.4065323
-0.3091195 -0.14481385 -0.45543364 -0.34635153 -0.45470494 -0.16207466 -0.40151292 -0.67588234
-0.47539723 -0.23307016 -0.47740936 -0.07220636 -0.1619659 -0.42249408 -0.0038235793 -0.16152184
-0.13253021 -0.20523246 -0.025643218 -0.20399083 -0.37651086 -0.4142935 -0.21822031 -0.121205375
-0.20764643 -0.37837884 -0.68135524 -0.25758895 -0.46968132 -0.028594395 -0.17135155 -0.05649556
-0.3815739 -0.43050858 -0.16912472 -0.12514924 -0.05213117 -0.4088791 -0.047570564 -0.14502183
-0.033016756 0.19765225 -0.1647765 -0.32631156 0.0015313765 -0.14007466 -0.6514231 -0.10661193
-0.23736243 -0.38900867 -0.20064235 -0.06324008 -0.045941215 -0.022751344 -0.09991877 -0.057615858
-0.045891676 -0.21354744 -0.39998412 -0.56046814 -0.19785099 -0.44912335 -0.111133784 -0.15001032
-0.704801 -0.53578085 -0.36423728 -0.23039857 -0.18162972 -0.14207843 -0.057606872 -0.20769122
-0.16787882 -0.026877949 -0.13834414 -0.33324122 -0.089968234 -0.4327367 -0.026206404 -0.2955412
-0.2525515 -0.2367794 -0.12125177 -0.16531402 -0.25931308 -0.13438042 -0.37389648 -0.14721023

conv1.bias f4 [256]
00000000: da7a 74be 4a73 aabe 4dd4 abbe c549 18bf
00000010: b340 a7bf 2cfd 3fbf 2533 d5be 8662 08be
00000020: f5eb 213e 2298 3fbf abc9 c6be 820a 41be
00000030: 2c29 24bd 44c2 ab3d f334 51be f307 efbe
00000040: f8be abbd b6e3 c7be fc09 43bf 1584 fdbd
00000050: c485 55be 0d36 4b3c a920 08be f1d5 03bf
00000060: 834c 41be 8f8f 49bf 4c4b 7cbe 228f 6cbf
00000070: 5e1d 00be 571f 56bf 7374 2dbf 2695 5dbf
00000080: f5b6 85be 631c 44bd 80ab d0be 61e4 cabf
00000090: 6085 003d 60d2 febe 409e 15bf 075e 20be
000000a0: 1291 9e3e 2cea 20bf 3b23 523d 7793 8dbe
000000b0: e4bd 833e 1248 bfbe 76bb a8be 484e 0cbf
000000c0: a106 1abe a1ad 84be 62f9 5fbf bbd8 47bd
000000d0: f6e1 fabe 66a2 00bf 8175 78bf 0fc3 d2be
000000e0: 68b9 c5be 26d0 373c 1a15 c33d 01f6 48be
000000f0: 92dc 713d 8502 39be 5b7b 2dbf 8985 1bbd
00000100: e819 1abe abce 61be 21e4 11be 653e b7be
00000110: a699 8dbe d98a a33b db31 a5bd 1eb8 9dbe
00000120: a779 29be 6c54 d0bf 4dad b2be 0970 2fbd
00000130: b652 fc3c c384 a93d a277 a6bd 9108 95be
00000140: e7df 48bf 4cce 7dbe d9a7 37bf e1e0 06bf
00000150: 2601 f13c 561f 5abe b102 88be bbc6 07bf
00000160: b9ee a1be b77f eebe d911 fe3b 6f03 57be
00000170: d87d 45be 253c 08bd da87 14be f102 08c0
00000180: f470 d8be 212e 00bf 6c5e 1abf bd4d 8fbf
00000190: c5ad 19be 27b1 fbbe 351c 00bf 6dae 96be
000001a0: a194 b7bd 53a9 cbbf f429 dcbd 1689 30be
000001b0: 1038 3abd cc0b fbbe 4d3c 27bf 45d9 f6be
000001c0: 89a6 dbbe 8e49 92be ea5c 25be 42b4 08bf
000001d0: 56c6 abbe 6840 a4be 0f99 e53d eb9d a4be
000001e0: 9616 0bbf 3c58 33be abad 183d f625 ddbe
000001f0: ad2f 9ebe 0800 bfbe fd3e 77be e6b2 d7be
00000200: ee57 d4be 9018 d3be e80d 43be 8e5a 58bf
00000210: cb26 83be b17d 82be 5325 31bd 24ef 4cbe
00000220: 3a8d cabe 0a50 48bf 8329 c1be 1c30 45bf
00000230: f461 1e3c a8f7 19be cb20 21be 8c51 e13c
00000240: 6e9d da3c 393e 61bd cd5c cf3d a935 eebf
00000250: 61cd 9fbd 1fe5 3e3e 0304 89be 034f 24bf
00000260: 5e7c 03bf bd43 34bf 30c9 01bf c765 01c0
00000270: 903c 39bf d334 d0be 7ab3 c5be 219e 16be
00000280: d48e 15bf 4162 0bbd ac10 c1bf a4e8 47bd
00000290: afa8 92be d662 61bf 7f26 fa3a 695f bcbe
000002a0: 0be5 6fbe 6160 31bf 70fc 6fbd bf80 e23c
000002b0: fa52 13bf 7e08 cebe cfa8 f0bd 730a efbe
000002c0: db5e 6dbf 0ace 243d 075c 52be 3d60 0bbe
000002d0: 5d49 363c 87d0 8ebe 4107 46be ebc5 b8be
000002e0: 80b0 fdbd 3fee 59be 5c31 81be fa7d 9cbe
000002f0: b8c5 50bd 0a9b 24bf 3943 953d 4287 6bbf
00000300: 28a0 03bf 65b9 0fbe 02ad 0fbf 19c4 08bf
00000310: e4d7 99bf 7be2 0ebe fab4 b7bc 994e 17bf
00000320: 910d 5abe 0a93 04bf 9b75 31bf 6810 763c
00000330: 887b 5abd 890a 8fbe 9c3c 71bf a0bc 02bf
00000340: a117 1ebf 3fed 1ebe ff2d c9bd e591 9ebe
00000350: 149e 23bf e4f6 a5be 65cc aa3d 54c4 03bf
00000360: 9324 f0be 02f1 12be 2eb1 1dbf 4a9a c7be
00000370: af39 f6be eb63 b5bb 887e 81be f98f 8ebe
00000380: 0e6e dcbf fe7a e4be 6ad3 15bd 088b c13f
00000390: d20d bebe 05d4 fdbe a8d0 a4be 15d0 c6be
000003a0: c910 dbbc 3938 71be 752c 9bbf c0a0 11bd
000003b0: 30aa 79bb 9fb7 85bf 5420 44be 38ad d3be
000003c0: b91d 3fbf 21dd 01bf 0115 9dbe f27a dfbe
000003d0: 74e0 1dbf 6817 07bf 089b 8ebe abe0 82be
000003e0: 36b7 3cc0 f072 77be 1ae8 773d f51f 563c
000003f0: 94aa aabf a24e c8be d82d 04bd a441 42be
-0.23874989 -0.33291084 -0.3356041 -0.59487563 -1.306662 -0.74995685 -0.41640583 -0.13318834
0.15812667 -0.7484151 -0.38825735 -0.18851665 -0.040078327 0.083866626 -0.20430355 -0.46685752
-0.08386034 -0.39040917 -0.7618711 -0.12378708 -0.20851809 0.012403023 -0.13293709 -0.51498324
-0.18876843 -0.7873468 -0.24638098 -0.92405903 -0.12511203 -0.8364157 -0.6775581 -0.8655571
-0.26116148 -0.047878634 -0.40755844 -1.5850946 0.031377196 -0.49769878 -0.58444595 -0.15660869
0.30970055 -0.6285732 0.05130313 -0.2765157 0.25730813 -0.37359673 -0.3295552 -0.5480695
-0.15041591 -0.25913718 -0.874899 -0.048790675 -0.4900052 -0.502478 -0.97054297 -0.41164443
-0.38618016 0.01121906 0.09525509 -0.19625093 0.059048243 -0.18067367 -0.6776635 -0.037969146
-0.15048945 -0.22051494 -0.1424718 -0.3578979 -0.27656287 0.004990917 -0.0806615 -0.30804533
-0.16550313 -1.6275764 -0.34897843 -0.042831454 0.030801158 0.082772754 -0.08128287 -0.29108098
-0.7846665 -0.24785727 -0.7174049 -0.5268689 0.029419493 -0.21301016 -0.26564553 -0.53037614
-0.31627443 -0.46581814 0.0077535925 -0.20997404 -0.19286287 -0.033260483 -0.14504948 -2.1251795
-0.42273676 -0.5007039 -0.60300326 -1.1195599 -0.15007694 -0.49158594 -0.5004304 -0.2942995
-0.089638956 -1.5911049 -0.107501894 -0.17239794 -0.04546362 -0.49032438 -0.65326387 -0.48212638
-0.42900494 -0.28571743 -0.16148725 -0.5340005 -0.33549756 -0.32080388 0.11210834 -0.32151732
-0.5433134 -0.17514127 0.037274998 -0.43193024 -0.3089575 -0.3730471 -0.24145122 -0.42128676
-0.41473335 -0.41229677 -0.19048274 -0.84513175 -0.25615534 -0.2548652 -0.043248486 -0.200131
-0.39560872 -0.7824713 -0.37726983 -0.77026534 0.0096669085 -0.1503588 -0.15735166 0.027504705
0.026686396 -0.05499098 0.10125122 -1.8610126 -0.07802845 0.1864209 -0.26760873 -0.6418306
-0.51361644 -0.7041586 -0.5069761 -2.021837 -0.72358036 -0.40665302 -0.38613492 -0.14708759
-0.58421063 -0.03402925 -1.5083213 -0.048805848 -0.2864432 -0.88041437 0.0019084959 -0.36791542
-0.23427217 -0.6928769 -0.058590353 0.027649282 -0.5754849 -0.40240854 -0.11750948 -0.4668766
-0.9272286 0.040235557 -0.20542918 -0.1361093 0.01112589 -0.2789347 -0.19338705 -0.360885
-0.1238718 -0.2128229 -0.2523297 -0.30564862 -0.05096981 -0.6429907 0.07288212 -0.9200326
-0.51416254 -0.14035566 -0.56123364 -0.5342422 -1.201901 -0.13953583 -0.022425164 -0.59104306
-0.21294238 -0.51786864 -0.69320077 0.01501856 -0.053340465 -0.27937725 -0.9423311 -0.5106907
-0.61754805 -0.1552019 -0.09823226 -0.30970684 -0.63913083 -0.32414925 0.083397664 -0.5147145
-0.46902904 -0.1434975 -0.6159848 -0.389849 -0.48090884 -0.005535593 -0.25291848 -0.27844217
-1.7221086 -0.44625086 -0.036578573 1.5120554 -0.3711992 -0.4957582 -0.32190442 -0.3883063
-0.026741402 -0.23556603 -1.2122942 -0.035553694 -0.0038095824 -1.0446662 -0.19152957 -0.41343093
-0.7465473 -0.5072804 -0.30680087 -0.43648487 -0.61670613 -0.5277009 -0.27852654 -0.25562033
-2.9486823 -0.24164939 0.060524084 0.013069143 -1.3333306 -0.39122492 -0.032270283 -0.18970352

conv1.lin.weight f4 [256, 11]
00000000: 6004 f63b c1b9 123c 071d 223c 7f0f 883c
00000010: 6fb1 aebc 1f99 98bc b3b1 9b3c 6c79 8a3c
00000020: 3b0e 92b9 b44c 88bc d46b 52bc 4475 1b3c
00000030: 5276 bf3c 8dd2 febc 61e6 093c c3c6 d1bc
00000040: 9093 013d 2795 89bc a09f 323c 1de8 a53c
00000050: b40f 22bd 27ef 19bd 91ec 7f3d cfb3 42bc
00000060: b984 233c 75d6 68bc 07d0 c5bc 8138 bf3c
00000070: 31ea 67bc 296f dbba e463 d7bc 8bee b63b
00000080: 46a1 5e3c ed91 253d 8963 9abb d1c1 863c
00000090: 8604 de3d 9058 823b 9f66 223c e5f8 0a3d
000000a0: 44eb 833d 87b9 c23b 1430 ccbb 3dfb e43b
000000b0: 9ff7 19bf 52be 2b3f 9a8e 79bd 4153 dabd
000000c0: 7850 543d 2d47 043f d352 05bd acf7 fbbc
000000d0: 4e73 903b 10d0 13bd d1e0 eebb d300 5d3d
000000e0: 7f59 fbbc ee32 f23c 455b 2f3c 6dcc d1bc
000000f0: e0e6 e8bc 21c3 083d 3465 b3bc e8bb ab3c
00000100: d38c 5bbc a633 0b3e ae5b 793c 5c19 b7be
00000110: 442e d2bd c44d 8fbd 5d6a f0bc 8499 1dbf
00000120: 6cd4 94be c030 63be 1b81 51be c2d7 86be
00000130: b531 26be 51d7 2e3e 07c8 25be f162 69bd
00000140: 66d4 aabc d90f 6b3b 04cb 35be ce6d d7bc
00000150: 8d8d 15bd ab1f 963d f9a1 803c b510 94bf
00000160: ccbb c83d 64eb 2d3e 1007 c93d 614d 09bf
00000170: aad4 f33b 9f31 40be d58c 11bb 627e c2ba
00000180: af26 2dbb f4bb 013a 41ff a13b 6439 053f
00000190: f3b8 ed3e 762a ed3d 1cbb 973d 3c9f bf3d
000001a0: 80fe 843f b515 413f 0cf0 0d3f e0a3 173f
000001b0: aeac 253f ff4a a33d 6833 02be 9f45 eebe
000001c0: 1108 28be 31b4 1dbe 9e4b 5a3e 4df5 b4be
000001d0: b8fc 8cbe a574 fe3d 941a 1d3f 940f 2f3e
000001e0: 6064 903d 6e36 603e e016 eebb 5a13 dcbe
000001f0: d9b9 1e3d 04a9 65bc e23d 72be 9bb9 893c
00000200: 3101 c93c 0e03 953b bdbc 12bc b1e8 f2bd
00000210: af7c c03e 65c3 30bd 7098 333d bdd6 bd3d
00000220: eb7f de3a 888c f9be 5dc1 42bb 35be 903e
00000230: 2457 563e 398b adbe d507 b1bd 7db1 bd3c
00000240: 72a9 6a3d 22b7 d23c 227d 213d 29da 6fbf
00000250: 7091 75bd ee45 883d 198f 87bd 1576 283d
00000260: 1e68 593d 3896 8bbc de1a dd3d 675e 293e
00000270: ba9d 85be 1fbb 99be 0d04 5e3c 2ece 13be
00000280: adaf 8e3c af30 bf3c 192b b5bc 03ca fbbb
00000290: 0845 78bc 895f 793e 512a 82be 2f01 4a3d
000002a0: 315f abbc 9ef7 7abb d60c 4dbe 1ca8 90bb
000002b0: 630d 2cbc 7f7d 37bc 1c1e 17bc 07f6 303f
000002c0: 7077 a9b9 a3c1 a2bb 04cd d9ba 89ca 833b
000002d0: e64e 0fbc ff3d cd3b ef7e 993b cd7c 1abc
000002e0: e0b6 873b 240d 6ebc e5db 4a3b 8eb3 123d
000002f0: 38e5 e03c 5a55 a83c 3932 b73b 6626 073a
00000300: 1375 7ebd f745 82bc 52b1 023d 0656 3a3d
00000310: d89f 95bc 3a27 fe3a 7550 333f 8c1c b6bd
00000320: 3dfc d2ba aedd 2b3d 40e4 19be f0d7 91be
00000330: 5b45 903e c49b 13be c07b e5be 5840 0abe
00000340: 38e4 91be be37 503e 1270 b1be d478 0abe
00000350: b79e 2dbe bb97 2dbe db0f 06be 1785 efbd
00000360: bdbe 2f3e b68e f43d a52d 1bbd 4757 1dbe
00000370: a302 e13b 328c 003e f5ef 6f3d 1679 96be
00000380: 5ae0 d5b9 353d 51bd 5d46 54bc 74ec 07bc
00000390: 89d1 b6bc 0d25 103c b026 323e ae27 45be
000003a0: 8ac4 b8be 47be 35be 940f 75be 1729 5d3c
000003b0: a3c3 6c3e 1199 503f a833 c2be 804e a63e
000003c0: df28 36bf 3526 d53c c6cf 2e3c 108a 44bc
000003d0: 1b2c 393b ba36 adba 95a2 42bc 3c00 51bc
000003e0: f4a1 cfbb 432e 54bc daa9 4a3b 777d 62bc
000003f0: 8a3e 2fbc 9510 173c 0c74 4f3d 0ea3 943c
0.0075078458 0.00895542 0.009894616 0.016608952 -0.021324841 -0.018627701 0.019005632 0.016903602
-0.00027857893 -0.016638137 -0.012843091 0.0094884075 0.02337185 -0.031106258 0.008416743 -0.025607472
0.031634867 -0.016794754 0.010902315 0.020252282 -0.039565757 -0.03758159 0.062481467 -0.01188369
0.009980374 -0.014211287 -0.024147047 0.023342373 -0.014154957 -0.0016741502 -0.026292749 0.0055826358
0.013588255 0.04042237 -0.0047115725 0.01644984 0.108407065 0.0039778426 0.009912162 0.03392877
0.06441358 0.0059425267 -0.0062313173 0.0069879577 -0.60143465 0.6708728 -0.06092701 -0.10660411
0.051834553 0.51671106 -0.03254969 -0.030757748 0.0044082766 -0.036087096 -0.007289984 0.053955864
-0.030682324 0.0295653 0.010702913 -0.025610173 -0.028430402 0.033389214 -0.021898843 0.020963624
-0.013400274 0.13593921 0.015219612 -0.35761535 -0.10262731 -0.069972545 -0.029347593 -0.6156237
-0.29068315 -0.22186565 -0.20459406 -0.26336485 -0.16229899 0.17074324 -0.16189586 -0.056979124
-0.020853233 0.00358676 -0.17753226 -0.026297476 -0.036511946 0.07330259 0.015702235 -1.1567599
0.098014444 0.16984326 0.098158 -0.53633696 0.007441123 -0.18768929 -0.0022209187 -0.001483869
-0.0026420762 0.00049489667 0.0049437587 0.52040696 0.46430168 0.115803644 0.07408735 0.093565434
1.0390167 0.7542375 0.5544441 0.5923443 0.64716613 0.07973289 -0.12714922 -0.46537492
-0.16409327 -0.15400769 0.21317908 -0.353434 -0.2753656 0.12424592 0.6136868 0.17095786
0.07050395 0.21895763 -0.0072659105 -0.42983514 0.038751457 -0.014017347 -0.23656419 0.016812136
0.0245367 0.0045474833 -0.0089561315 -0.118607886 0.37595126 -0.043155093 0.043846548 0.09269474
0.0016975378 -0.4874003 -0.0029717304 0.28270116 0.20931679 -0.3389528 -0.08644072 0.023155922
0.057290502 0.02572209 0.039425977 -0.9369226 -0.059953153 0.06653963 -0.066190906 0.041128237
0.05307781 -0.017039403 0.1079614 0.16539918 -0.26096898 -0.30025575 0.0135507705 -0.1443412
0.017417753 0.023338644 -0.022115277 -0.007683994 -0.015153177 0.2435285 -0.2542291 0.049317535
-0.020919414 -0.0038294564 -0.20024428 -0.0044145714 -0.0105012385 -0.011199354 -0.009223487 0.6912541
-0.0003232318 -0.004966931 -0.0016616886 0.004021947 -0.008746838 0.006263494 0.004684321 -0.009429169
0.0041416734 -0.0145295 0.0030953821 0.035815768 0.02745305 0.020548511 0.005590704 0.0005155563
-0.06212337 -0.015902502 0.031907387 0.045492195 -0.018264696 0.0019390353 0.7004464 -0.08892164
-0.0016096901 0.041959457 -0.15028477 -0.2848506 0.28177914 -0.14414889 -0.44820976 -0.13501108
-0.2849443 0.20333764 -0.34655815 -0.13522655 -0.16955076 -0.16952412 -0.13091986 -0.11695307
0.17162605 0.119412825 -0.037885327 -0.15365325 0.0068667694 0.1255348 0.05857845 -0.29389256
-0.0004079368 -0.051083762 -0.012956229 -0.008296121 -0.022316711 0.008797896 0.1739757 -0.19253418
-0.36087447 -0.17748366 -0.23931724 0.013498566 0.23121504 0.8148356 -0.37930036 0.32481766
-0.71156114 0.026019195 0.010669654 -0.011995807 0.0028255049 -0.0013215162 -0.011879583 -0.012756404
-0.006336445 -0.012950483 0.0030923993 -0.013823858 -0.010696063 0.009220262 0.05064778 0.018144157

conv2.bias f4 [256]
00000000: 2ffc e73e 3c65 4fbf 8818 b2be a536 c23e
00000010: 8284 c13e 35bc b33e 575a acbe 5ebd efbd
00000020: c09f d23d f23f 9e3f 0252 1f3e ef96 a8bf
00000030: 2c7d c53d d656 a13e 229f 19bf 562c cf3e
00000040: 7bc6 0bbf 0701 ef3e 2910 49be b07d afc0
00000050: f48a 0b3f 1cbd 2fc0 aea0 c83e 4f6b ef3e
00000060: 28d9 2b40 65a7 003e af47 cdbd 4d72 a340
00000070: 2fc5 73bf 3ed9 99bb f74f 1dbd badd 3e3f
00000080: f786 403f a1b7 e4bf 5bd1 e7ba 20bf abbd
00000090: f7ec 2e40 cd10 37bf fdf0 f03e ccc1 0e3f
000000a0: 030a 2cbf 7b06 0bbf 5bc1 373e 87c3 26bf
000000b0: 78b2 4b3d 1863 81bd 0ffe 85bd 6102 0f3f
000000c0: d15e 583e 6bf5 de3e debb 463f 2c3e cdbd
000000d0: 46ab 8f3f 31cb 9640 7c74 b53e 2915 9e3e
000000e0: 5cce 32c0 6cab 4bbf 4250 98bf e087 9b40
000000f0: 01be 87bf 4c0c dbbc 3477 81bd c362 6fbe
00000100: c0ee 4cbe a3e6 9cbd 95f8 abbd 44a0 c33f
00000110: 956c dabd 7522 d5bf 837f d23c 1525 3b3f
00000120: 6cca 0bbd 0028 003f 1d88 983e 5221 373d
00000130: b2ca 51be f586 43bf 579e 6b3f 2f09 d5be
00000140: d837 043f ac94 2c3d 1305 e23e 2a81 f2bf
00000150: 6038 91be 7b8e c3be aead abbf a944 f9bd
00000160: 236b aa3e d9f3 103f ee8b 643f 8f39 b43f
00000170: b6cc 3abc de85 993f 291e 613e 25a1 4fbc
00000180: 1689 933e 21df 3d3e 60cb 3bbd 279d 7a3e
00000190: 3718 ae3f d8de dcbe 0c3c cf3f 8e68 303f
000001a0: feeb 02bf 61f2 0ebc 58a5 8c3e 2d28 733d
000001b0: f4b7 47bf b103 e0be 693d 583e 3240 f1bd
000001c0: 3071 adbf e66c 7bbf f93b 9a3e 99ad e7be
000001d0: 1ddc 90bf 11e5 b5c0 bba4 12be 0f0e 873e
000001e0: 701f 883f 97a5 763f 055e 58bd a38a 58bd
000001f0: 51fd b5be c9f4 e0bd eb1c 163e f6a5 f23e
00000200: 6c4c 1cbf a783 933f 2406 a1bf aaea 083f
00000210: d7d0 05bd 0dd3 e6be e457 063e 12f0 143e
00000220: c464 0dbf 0844 a8be 6fa7 bfbd 4985 0fbe
00000230: ba5e 8cbe 091b 20bf 044d 1abf 7bb1 25be
00000240: d902 6a3e 7ad8 90bd 9aad 3cbf dcfd fc3d
00000250: 7120 b03f ac64 b33f b98b 9cbf 136c bc3f
00000260: 695f b33e 210b 17be 45da b1be a67c 46bf
00000270: 2f84 b43e 746c 80bf ba2c 0cbf 314f 56bf
00000280: 32ca f33e 53e2 403f 86bf 1bbf 2ecb 54be
00000290: dbeb 95bf c739 083e 513a e8bd 5152 333f
000002a0: 9ab6 bd3e 812e a2be 1ad9 e8bd 8a7a af3e
000002b0: 65ff 793e 3d08 5e3f 6367 5c3e 58b1 56bf
000002c0: 584e 7d3e 2ca3 dfbd b93f f7be 697d cc3e
000002d0: d5ab 39be 346a c03e 418a bc3f 571d 433f
000002e0: 3485 4b3f 1a8d f63e e689 3fbf 4bbc adbe
000002f0: 6bb8 953d 10d2 4dbf 159c d5bd 7fa0 95be
00000300: 637b 87be 32cd d43d a1b0 2ebd cdbc 253f
00000310: 5d31 d83e d090 70be 9441 7f3f ddc8 713e
00000320: 7bf9 4cbd 0420 703f d84e 3a3f 6d21 493e
00000330: bb8d aa3f 85b9 24bf 4a18 3f3e a96d 95bf
00000340: 82ab 273e c3ac 10bd c757 3a3e 48a5 183e
00000350: ca9c a2bd ef39 773e 368f dbbd 76f5 95bf
00000360: 5722 80bf dca2 cbbe 0a0a 3abf 3393 213f
00000370: df87 b33e f3b1 173d b419 453f 427f ea3f
00000380: b14e 943f 53e2 48bf c0dc 1c3e cebf 98be
00000390: 8f98 203d 55b3 9e3e c719 813e 1889 07bf
000003a0: e732 0640 656e 113f 9a57 143e 9c17 503f
000003b0: 3fa2 41be 6bdd a33f ee77 983e df1d 18bf
000003c0: 0c4c b4be 205e 5fbe ed14 8dbe ef90 15bf
000003d0: 930f 753f 1638 c7bd 3eb9 fb3f cea9 8a3f
000003e0: 647f 8ebf c80f 12be 793a 7bbd 7f5d 673f
000003f0: a66b ff3e 0409 eb3f 9d7a 6fbd f925 49be
0.45309588 -0.81013846 -0.3478434 0.37932315 0.37796408 0.35104528 -0.33662674 -0.11706041
0.10284376 1.2363265 0.15558627 -1.3171061 0.09643015 0.31511563 -0.6000844 0.40463513
-0.5459973 0.4668047 -0.19635071 -5.4840927 0.545089 -2.7459173 0.3918509 0.46761557
2.6851292 0.12563856 -0.10023438 5.1077027 -0.95222753 -0.0046950867 -0.03840634 0.7455708
0.7520594 -1.7868539 -0.0017686294 -0.083860636 2.7332132 -0.7151001 0.4705886 0.5576446
-0.67202777 -0.54306763 0.17944853 -0.651421 0.049730748 -0.06317729 -0.065425985 0.55863005
0.2112992 0.43546614 0.7763041 -0.10021624 1.1224144 4.7123036 0.35440433 0.3087552
-2.7938452 -0.79558444 -1.1899493 4.8603363 -1.060486 -0.026739262 -0.06321564 -0.23377518
-0.20012951 -0.07661178 -0.08397023 1.5283284 -0.10665242 -1.665114 0.025695568 0.7310346
-0.03412859 0.50061035 0.29791346 0.04470951 -0.20487478 -0.76377803 0.9203848 -0.4160857
0.5164771 0.042133972 0.44144496 -1.8945668 -0.28363323 -0.3819464 -1.3412378 -0.12171299
0.33284864 0.5662208 0.89276016 1.4080065 -0.011401346 1.1993978 0.21984161 -0.012672697
0.28815526 0.18542148 -0.04584825 0.24474011 1.360114 -0.43138766 1.61902 0.6890954
-0.51141346 -0.00872478 0.27469897 0.059364486 -0.78015065 -0.43752816 0.21117176 -0.117798224
-1.3550167 -0.9821304 0.3012388 -0.45249632 -1.1317173 -5.684212 -0.14320652 0.26377913
1.0634594 0.9634642 -0.05282404 -0.05286659 -0.35544828 -0.10984189 0.14659469 0.47392243
-0.6105411 1.1524552 -1.2579999 0.5348307 -0.03266987 -0.45082894 0.13119465 0.14544705
-0.5523188 -0.32864404 -0.09358107 -0.14015688 -0.2741602 -0.6254125 -0.60273767 -0.16180985
0.22852649 -0.0707254 -0.73702395 0.12353107 1.37599 1.4015098 -1.223014 1.4720482
0.3503373 -0.14750339 -0.3473684 -0.7753395 0.35257098 -1.0033097 -0.5475575 -0.83714586
0.476152 0.75345343 -0.60839117 -0.20780632 -1.1712602 0.1330329 -0.11339248 0.7004748
0.37053376 -0.31676105 -0.11369534 0.34273177 0.24413832 0.8673132 0.21523814 -0.83864355
0.24736917 -0.109197944 -0.48290804 0.3993943 -0.18131955 0.37581027 1.4729692 0.76216644
0.79500127 0.48154527 -0.7481979 -0.3393272 0.073105656 -0.80398655 -0.10430161 -0.2922401
-0.26461324 0.103907004 -0.042648915 0.6474121 0.4222516 -0.23492742 0.9970944 0.2361178
-0.05004261 0.9379885 0.72776556 0.19641657 1.3324503 -0.6434558 0.1866161 -1.1674091
0.16374019 -0.03532101 0.18197547 0.149068 -0.079400614 0.24143194 -0.10720675 -1.1715534
-1.001048 -0.3977269 -0.7267157 0.63115233 0.350646 0.03703494 0.76992345 1.8320086
1.1586515 -0.78470343 0.15318584 -0.29833835 0.03920799 0.30996194 0.2521498 -0.52943563
2.0968568 0.56809074 0.14486542 0.81286025 -0.18909548 1.2801946 0.29779 -0.5942058
-0.3521427 -0.2181325 -0.27555028 -0.58424276 0.9572689 -0.097274944 1.9665906 1.083307
-1.1132627 -0.14263833 -0.06133506 0.9037704 0.49886817 1.8362126 -0.058466543 -0.19643392

conv2.lin.weight f4 [256, 256]
00000000: 8f9e 3bba a784 19bc 42fa b3bd 21c1 1bbe
00000010: b3b9 06be 476b 88be 033e c43d f564 50bd
00000020: fac3 d03d a5dd c4bf 415e b5bd 3b1e de3d
00000030: c271 8a3c f123 70bd 21c4 4bbd c648 efbd
00000040: 06fd 483e e910 96bd 1d01 1dbe 895d 863d
00000050: 0651 c33c 3e62 f2bb ff2c 4cbc 6c6f 163e
00000060: 8759 d73d 85a9 093e c1b7 fc3d 0afb 16be
00000070: 76ed 523d 485e c4bb 7d5f a0bb dd57 d63c
00000080: 61c7 82be 7493 acbc 3b3f da3c e10a 8c3d
00000090: a490 d33d f034 ccbc 8ae3 9e3d e270 01bd
000000a0: 3dfe 1a3d 5bd4 87bd 2061 bfbb 62af dbbb
000000b0: b309 5ebc d83f 6c3d 5115 13bd 40b4 233e
000000c0: f2a7 49bf ba44 f03d 1544 623d 53dd 333d
000000d0: a27a 1dbd 7f96 033e cfc4 1a3d 48d5 96bc
000000e0: 316b ecbc 8e66 9ac0 271c 603c 8e3e 4d3e
000000f0: 6d01 153c 92cc 56be 2a19 9c3d 5af8 b33c
00000100: 0908 183c 4122 4bbd d301 8ebc ce17 563d
00000110: bcef b4be 13d1 ccbc 913e a6bd 9d76 153e
00000120: bee9 68bd 6c54 813c dfa9 823d abaa 0f3c
00000130: 376d 1a3f ab1a c03d 5a45 d83c db6e a1bd
00000140: d513 62bd 0a5c 183c 01b0 213e 3009 9f3d
00000150: d62b c2bc 6408 28bd 6b4b f43d 7228 3d3d
00000160: 6625 7ebd cc59 5f3e 3068 68bc b554 673e
00000170: 454c d03d 9f06 343e 40ba cb3d 3843 843e
00000180: 0e26 cd3d b4e8 8c3d 623b 633c bbde 563d
00000190: 2422 7f3d ba21 1abe ae99 cc3d eeeb c8bd
000001a0: c5d8 bfbd bfde 5bbd 4762 bd3d 0638 85bd
000001b0: 2348 fab9 8732 24be 0a9d 043d ac80 813d
000001c0: 8c4a 20be d278 a83d 142f 353d b67e e03c
000001d0: 66c2 9139 cbca 243d c593 a93d 665c 7e3d
000001e0: 0467 753d af9a 10bd 8b97 013e a493 bd3d
000001f0: 1ece 743e 612e 53bd 20bc dbbd ca48 83bd
00000200: 4451 45bd 9538 0fbd edb2 ec3d c009 7b3a
00000210: 6881 823d c4c1 533e 6313 393d dd69 3ebc
00000220: 769a d23d 5e5a 7d3b 0625 6dbd 54ad 49bd
00000230: 3349 443d e4f5 ce3d 3020 cd3b 9283 c33c
00000240: 986c 3cbd ec37 c63d e277 b63b 2826 3bbd
00000250: fb7f 64bc 6389 abbd 72b6 543d d419 5bbc
00000260: 56fc 9f3d d3bc 6a40 4afe 89be 4424 02bd
00000270: d2e7 76bd e06f c3bd 567b 53be c7b7 febd
00000280: aa92 eabd 9a1f c33b 63cc a3bd 779f 593d
00000290: 8da6 2abd 14d3 0ebe 57e1 b4ba 5028 14be
000002a0: cd8a 88bd 14a1 04bd 6850 aa3b e226 613e
000002b0: 9bb4 fa3c d840 c13d 4c2d 69bd 8608 77be
000002c0: e19e b33d deaf 333d 31d1 f43d 54e5 0c3c
000002d0: 4eaa c3bd baea 263d c8fc be3d 9e2f b9bd
000002e0: 3973 933c 35c9 d73d 4070 0ebe ecc8 3d3e
000002f0: faa7 d4be 11ca 363d 6031 5e3c 9987 e4bd
00000300: 30d4 133d 15ef 063e cb44 1e3c 52ae 6cbd
00000310: dc32 5f3d 7bb8 963b 630f c73d b5f8 483d
00000320: f137 57bd e464 cfbd b8bf 853d d6ea 67bd
00000330: 14d6 52bc 0e57 8f3d c719 713d 9752 eabd
00000340: 80e8 563f 5aa8 b2bc 8e19 00bb 81ed 0ebd
00000350: 07cf 4c3d fba9 553d a8fb 343e 3e8b abbd
00000360: cd05 0c3e 8356 573d 429d 5fbd a455 21bc
00000370: 20d3 723d a6de f83c 6469 5fbd 0b39 41bc
00000380: b27e 3b3d 7a7f 3dbc befe 95bc be88 45ba
00000390: f1a8 093e eb32 693c 5026 a73d 6b39 bd3f
000003a0: 9d99 b73d 1e1d ea3d bcb4 69bd 27c3 97bc
000003b0: 4f68 69bd 99ac d23f ca77 5dbd a04a 8a3e
000003c0: 4d1d cd3f 4c51 e0bd 295c b9bd d90c 0cb9
000003d0: 571d 393d 9a56 06bd c113 853d 610e c1bd
000003e0: 6f18 68bd 4640 60bd 8bcf 813d 910c a23d
000003f0: 4ab3 51bb 5ccf 79bd 60a6 e6bd e22d ba3a
-0.0007157111 -0.009370006 -0.08787967 -0.15210392 -0.13156776 -0.26644346 0.0958214 -0.05087753
0.101936296 -1.538014 -0.08855868 0.1084561 0.016899947 -0.058628026 -0.04974759 -0.11683802
0.19627771 -0.07327444 -0.15332456 0.06560809 0.023842346 -0.0073969653 -0.0124619 0.14690942
0.10515123 0.13443573 0.12339736 -0.14744201 0.05149599 -0.0059926845 -0.0048941956 0.026164943
-0.2554274 -0.021066405 0.026641479 0.068380125 0.103303224 -0.024927586 0.077582434 -0.031601794
0.037840117 -0.066323005 -0.0058404356 -0.006704257 -0.013552117 0.057678074 -0.035909 0.15986729
-0.7877189 0.117318586 0.05524071 0.043912243 -0.03844703 0.12850378 0.037785348 -0.018412247
-0.028859707 -4.825019 0.013678587 0.20043394 0.009094578 -0.20976475 0.07621987 0.02196901
0.0092792595 -0.049593214 -0.017334854 0.052268796 -0.35339153 -0.025002038 -0.08117402 0.14596029
-0.05686354 0.015787326 0.063800566 0.008768718 0.603229 0.093800865 0.026400257 -0.07882472
-0.055194695 0.009299288 0.15789796 0.07765424 -0.023702543 -0.041023627 0.11928447 0.04618115
-0.062047385 0.21811599 -0.0141849965 0.22590907 0.10170797 0.17580651 0.09947634 0.25832534
0.10017024 0.06880322 0.013869138 0.052458506 0.06228842 -0.15051928 0.099902496 -0.09810625
-0.093675174 -0.053679224 0.092472605 -0.06504826 -0.00047737462 -0.160349 0.032376327 0.0632337
-0.15653437 0.0822617 0.04423435 0.02740417 0.00027801393 0.04023246 0.08280138 0.062099837
0.059912696 -0.035303768 0.12655465 0.09256676 0.23906752 -0.051557902 -0.10729241 -0.06410368
-0.048173204 -0.03496607 0.11557565 0.0009576343 0.063723385 0.20679384 0.045184504 -0.011621919
0.10283367 0.00386586 -0.057896636 -0.049237564 0.04792137 0.10105494 0.0062599406 0.023866449
-0.046002 0.09678635 0.0055684904 -0.045690686 -0.013946529 -0.08375814 0.051931806 -0.013372857
0.07811801 3.667775 -0.2695182 -0.031772867 -0.060279675 -0.09542823 -0.20652518 -0.124373965
-0.11453755 0.005954695 -0.07997968 0.053130593 -0.04166274 -0.13947707 -0.0013800067 -0.14468503
-0.06667099 -0.03238018 0.0051975735 0.21987489 0.030603698 0.09436196 -0.056927964 -0.24124345
0.08770538 0.043868892 0.119539626 0.008599598 -0.095539674 0.040751196 0.09325558 -0.090422854
0.017999278 0.10536424 -0.13910007 0.18533677 -0.41534406 0.0446263 0.013561577 -0.11158676
0.03609103 0.1317714 0.009659956 -0.057783432 0.054491863 0.0045996285 0.09719732 0.04906531
-0.052543584 -0.10126665 0.06530708 -0.05662044 -0.012868423 0.06999026 0.058862474 -0.11441534
0.83948517 -0.021808792 -0.0019546482 -0.03489447 0.050002124 0.05216406 0.17674124 -0.08376168
0.13674088 0.05257274 -0.054593332 -0.0098470785 0.059283376 0.030379605 -0.054543868 -0.011793385
0.045775123 -0.011566037 -0.018309947 -0.000753533 0.13443352 0.014233331 0.081616044 1.4783148
0.08964846 0.11431335 -0.057057127 -0.018525673 -0.056984242 1.6458923 -0.054069318 0.2701006
1.6024567 -0.10953006 -0.09050781 -0.00013356227 0.045193996 -0.032797433 0.064979084 -0.09426571
-0.056663927 -0.054748796 0.06338414 0.07912553 -0.0031997734 -0.06098877 -0.11262202 0.0014204348

mlp.0.weight f4 [256, 256]
00000000: 33cb 3abb 0838 19b9 e70f 99bd e855 67c0
00000010: 2eb1 acbd d496 ae3d 4f2e 463c d3d3 5e3c
00000020: 4c8d fc3d d1e4 8abd 39fd debc ac6d ef3d
00000030: fff4 66ba c1f9 24bd 096d 5bbd 75d6 8dbc
00000040: 1035 8ebb 248f 153d 90b6 c6bd d24c 7a3f
00000050: 748a 4dbd 02c4 aebd 69c2 e6bc 8752 eb3b
00000060: 5fc0 233e 8631 da3d 8875 7cbb 53c1 5bbe
00000070: 2143 77bf b8ee 873b c5fb d33e 5443 5fbd
00000080: c3b8 80bd e1f0 783f e9e0 97bc f7c5 f5bc
00000090: aaed b6bc 9b3c 60bd e17e 18bd a9af 97bd
000000a0: dbc9 8d3b e745 203d ed9a fa3b c53a 003c
000000b0: 2127 823b 85e4 c13c d441 803d 0603 d5bd
000000c0: 3117 a9bd 494b 5bbd da20 72bd 8515 d03c
000000d0: b2cb 3dbd 3f07 6ebf 4fe6 013b 56ab 0f3c
000000e0: ce5a e23d 0aee b5bf a956 39bd 975c d83f
000000f0: 2a29 abbe 83f9 043d df2e 01bf 4e3c f5bd
00000100: a520 92bd 9f42 5dbd 89fe e4bd 86ea b9bd
00000110: adb0 423f 1be5 853e 5588 a03d ab40 e03f
00000120: b4fd 77bd 3a9b 0a3e bef1 dfbd 9502 cb3c
00000130: e336 6bbd 03b9 14bd deef 88bd 2431 a3bb
00000140: 39b0 d83d 77c3 84be 1ea9 1dbd 63bd dabe
00000150: becd 1cbd 7afd a7bf 7689 bbbc 774e e9bd
00000160: 456c abbd 6599 70be 6791 88bc 4c66 c4bd
00000170: 6e02 9abf 17bc c4bd 5164 0ebd 3ae1 c6bd
00000180: fbfe 01bc 262d 08bc bebe b6bd b5dd 42bc
00000190: 15c5 933d cb88 533e b8db a7bd 2ba4 32bd
000001a0: b03a 82bd bcd8 8cbd 41d1 e9bc a7b3 23bd
000001b0: f71c 413d 9cae 433d e9fc 39bd 8525 303d
000001c0: 0135 9e3a ea23 82ba ed87 4fbd 81ba febc
000001d0: 92f2 09bb 0171 81bd 6f8e c5be c759 30be
000001e0: b659 d43c 7abb e13d 830f d7bf b359 b6bc
000001f0: b982 0fbd b685 16bd cc65 c03e cec5 6ebd
00000200: 8269 16bd fb4a 99bd 1357 01bd 82d1 18bd
00000210: ce40 29bc e2c3 973b aeee 5abd 8129 bc3d
00000220: 6e07 8abe 5779 d5bd dd28 363c d876 6f3d
00000230: 4c5d a4bc dd68 1dbe d89b 88bd 31d8 8abc
00000240: a8b3 a6bc 9309 98bf e8cf 4abd 970a 78bd
00000250: 7ca5 78be f987 193f 1480 0e3c 4bdd e6bd
00000260: fb97 61be a1ca 30bd deb1 a0bd 8656 253e
00000270: aa3a 7abc 2c64 44bd c977 d83f e9f5 fd37
00000280: 03c3 17bd 80f5 783e 1e09 27bd 9340 f3bc
00000290: ce9d 5b3d a73c 8abc 14e0 13bd 74b7 48be
000002a0: d80b c93d b708 26bd f624 56bc f49e 18be
000002b0: caca 66be dfa8 aabc ab28 6a3d eae2 153d
000002c0: bf5d 353f 02a1 8abd cf09 003b 517a ac3e
000002d0: c658 d5bd c158 103d bb32 01bd 0eb1 06be
000002e0: 8872 cab9 677a 58bc fd01 253d 94ab 48b9
000002f0: d13a a5bd 534c 91be 2a18 78bd 5288 d33e
00000300: 4582 71bc a5e2 8b3e 459b 1fbd 9e2b 89bc
00000310: 5bf0 b5bd 7322 bcbc 0891 a23d 3b79 b4bc
00000320: 7dee 0ac0 1723 e3ba be5f 303d 65b9 39bb
00000330: 7d67 97bc 9d40 9abc 6c61 a0bd 3274 e43d
00000340: 1b2c e2bd 863c 5e3f e998 16be d7d9 8e3c
00000350: ec73 9cbd b061 acbd 47fa f8bc 0709 6b3c
00000360: 3242 073d f7b6 efbd b63a bcbc f724 ab3c
00000370: 3a33 b2bd 0308 923d 685a afbb d169 4d3e
00000380: 8bcb b33d 448a fabb fe69 e23d ffa2 073e
00000390: 635f 5bbd 695d 04be a837 fbbc 1947 d5bd
000003a0: 4b71 de3d 4472 b9bf d3a0 003f 98ab 4ebd
000003b0: 7ee7 c4bf eac8 20bb 2ad0 713d 3f76 bd3c
000003c0: b186 ffbd e194 2dbd 05ea 8abd ab0e 17be
000003d0: 3258 de3d d91c adbf 3253 19bd fad8 93bf
000003e0: abf9 51bd 48ef dbbd 1109 4d3b bf1f 6abd
000003f0: 7dab 003e 63b7 98bc e0ba 34bd 7a92 05bd
-0.0028502464 -0.0001461209 -0.07473736 -3.6146183 -0.08432232 0.08524862 0.012096002 0.0136003075
0.12331638 -0.067819245 -0.027220355 0.1169084 -0.0008810311 -0.040277246 -0.05357078 -0.017314175
-0.0043398216 0.036513463 -0.0970279 0.9777347 -0.050180867 -0.08533479 -0.028168874 0.007181469
0.15991352 0.10653977 -0.0038522203 -0.21460466 -0.96586806 0.0041483305 0.41403022 -0.05450757
-0.062852405 0.9724255 -0.018539863 -0.030001624 -0.022330124 -0.054745298 -0.037230376 -0.074065514
0.0043270416 0.039129164 0.007647863 0.007826512 0.0039719497 0.023668537 0.06262556 -0.10400967
-0.082563765 -0.053538594 -0.05911336 0.025400886 -0.046336837 -0.92979807 0.0019821113 0.008768877
0.11052476 -1.4213269 -0.04524866 1.6903256 -0.33429843 0.032464515 -0.50462145 -0.11974393
-0.07135133 -0.054018613 -0.11181361 -0.09077935 0.76050836 0.26151356 0.07838503 1.7519735
-0.060544685 0.13535777 -0.109347805 0.024781505 -0.05742539 -0.036309253 -0.06686376 -0.0049802233
0.10580487 -0.25930378 -0.03849136 -0.42722616 -0.03828215 -1.312423 -0.022892695 -0.11391919
-0.0837026 -0.23496015 -0.016670896 -0.09589824 -1.2031991 -0.09606188 -0.034763638 -0.09710927
-0.007934327 -0.0083115455 -0.089231 -0.011893679 0.07215325 0.20657651 -0.08196205 -0.043613594
-0.0635885 -0.06877276 -0.028542163 -0.03996625 0.047146764 0.047773942 -0.04540721 0.04300453
0.001207024 -0.0009928916 -0.05066674 -0.031094791 -0.0021049124 -0.06320382 -0.3858523 -0.17221747
0.025921684 0.110220864 -1.6801609 -0.022259569 -0.035036776 -0.03674861 0.37577665 -0.05829411
-0.036721714 -0.074850045 -0.03157718 -0.037309177 -0.010330392 0.0046315053 -0.05345028 0.09187604
-0.26958793 -0.10423534 0.011118141 0.058462948 -0.020064019 -0.15372033 -0.0667035 -0.016948791
-0.020349339 -1.1877922 -0.04951468 -0.060556974 -0.24281877 0.599731 0.008697528 -0.11272677
-0.22030632 -0.043161992 -0.078464255 0.16146287 -0.015272776 -0.047947094 1.6911556 3.0274461e-05
-0.037051212 0.24312401 -0.04078018 -0.029693877 0.05361729 -0.016874624 -0.03610237 -0.19601232
0.09816712 -0.040535655 -0.013070336 -0.14904386 -0.22538295 -0.020832477 0.05716769 0.036593355
0.7084617 -0.06768991 0.0019537096 0.3368707 -0.10417323 0.035240892 -0.03154252 -0.13153479
-0.00038613775 -0.013212777 0.0402851 -0.00019137404 -0.08067859 -0.28378543 -0.06056992 0.41314942
-0.014740531 0.27321354 -0.038966436 -0.016744431 -0.08883735 -0.022965645 0.07937819 -0.022030463
-2.1708062 -0.0017329183 0.043060057 -0.0028339264 -0.018481964 -0.018829638 -0.07831082 0.11154975
-0.11043569 0.868111 -0.14706768 0.017437859 -0.07639298 -0.0841707 -0.030392779 0.014345414
0.033022113 -0.1170482 -0.022977214 0.02089165 -0.08701177 0.07130434 -0.0053513534 0.20059897
0.08779057 -0.007645877 0.11055373 0.13245772 -0.053557765 -0.12926258 -0.030666187 -0.104139514
0.10861453 -1.4487996 0.502454 -0.050456613 -1.5383146 -0.0024533817 0.05903641 0.023127673
-0.12476862 -0.04237831 -0.06782917 -0.14751689 0.10856666 -1.3524429 -0.037432857 -1.1550591
-0.051263493 -0.10738999 0.0031285922 -0.05715918 0.12565418 -0.018642133 -0.04412353 -0.032610394

mlp.0.bias f4 [256]
00000000: 8454 67bf 0cc1 ccbe 0671 a53f 7811 cdbe
00000010: 444b 21bf 7f94 31c0 8346 afbf e8f9 a6bf
00000020: cdd3 80bf ed8a c9bf 005c 66c0 4a04 0cbe
00000030: 2911 8a3c ae49 2fbf 14bc 4dbe c307 a9bf
00000040: 675c 3e3c a816 94bf 3229 6b3c e5e6 37bf
00000050: 2d60 ffbf 1688 573f 6932 7b3e 50c7 debe
00000060: df6f 0cc0 f14e 95bf ee78 a53d b6db adbf
00000070: 3ef8 10c0 19da 3e3e e407 0abf f98f 1d3f
00000080: f966 e0bf c6a3 0bbe 5f70 a9bf 8b0f 68c0
00000090: e14a bbbf 77e1 e7bf 2a9c 7dbe cff0 03c0
000000a0: 007d 493d ee33 cc3e 5fd6 5abf 03a8 30c0
000000b0: 9371 5abf 3d32 14c0 b1b3 00bf 2418 a9bf
000000c0: e969 06c0 a92d 87be 8795 62bf 214c 673e
000000d0: 1fe2 7bbf 0bc5 0f3f 3591 2cc0 83e5 12c0
000000e0: 5771 a23d fa8e 06c0 c905 08c0 9c34 29c0
000000f0: 9f43 19c0 9188 97be eaa2 58be 7089 6cbf
00000100: 0f67 32bf 49ea 33c0 c17d b9bf 6823 03c0
00000110: 75b2 d6bf 1f9f 173e 41ec 04c0 a91c 8f3d
00000120: 1d9d 2cc0 4991 89bf 36e5 cdbc 15c1 21c0
00000130: f92d f8be 7d7d 0fc0 8f0f 073f 6c8e 2cc0
00000140: 4f97 633f a3fb dcbf c86c bcbf cff0 0abf
00000150: 71b9 8dc0 12a0 8cbf 77b9 a5bf 02e9 af3d
00000160: 6813 87bf e83b 903d 4572 2fc0 bd41 17c0
00000170: bf83 a5be 9e9c 783c d2b1 84bf d1d0 5cc0
00000180: 1ba5 96be 3150 e8bf 8a93 6e3b 600b 5fbf
00000190: 93b7 bebf 40fe eabc 74e7 66c0 9049 a53f
000001a0: 4dca 16c0 b7cd 05bd 8f68 e1be f99a c2bf
000001b0: 9a8a b5bf d7eb 82bf d877 39c0 c9c2 2dbc
000001c0: 44ab bcbf d560 c7bf 2da8 27bf 0651 47c0
000001d0: 8004 32c0 a83f 06bf 4374 eabf f7b7 4bc0
000001e0: 6eec 7e3d 4a90 2abf c98b a1bf b063 d8bf
000001f0: f1e1 06c0 da9b 08c0 8472 64c0 2db6 ebbd
00000200: 4bb9 0dbf 38e5 d0bd 6347 e5bf 162e 4d3e
00000210: df0e 36bf 7b0d cabf 4c50 9f3d a01c 4bbf
00000220: 1700 39c0 06f9 5ebf 1ce8 eabe 2bd3 e1bf
00000230: 04ca 533f 278a 8abe 97b8 d3be f1aa efbf
00000240: 3d9a 81bf 464e d9bf 192e 8bbf 6d61 61c0
00000250: 3251 72bf 70b1 69c0 cfc7 a7bf fc24 ccbe
00000260: 3d2e a0bf 65a0 99bf b1c1 7fbf eb5c 3bbf
00000270: d5f5 9cbf 9d78 02c0 fab4 f53d 99c8 0dc0
00000280: 8379 213d 9f7c 28bf a189 a83c 8189 44c0
00000290: 2059 ccbf 1ebc 54c0 ccd7 973e 2d75 40bf
000002a0: 128c 92bf 58d4 abbf 9dbf 9bc0 6c46 89be
000002b0: 21fe 05c0 a7bd ab3d 9275 42c0 9284 d6bf
000002c0: 123b 9b3e 0328 97bf 091b 43c0 eb82 81c0
000002d0: 5844 4dc0 9391 9b3f 9081 bfbf 6b43 89bf
000002e0: de35 14c0 2e3a 85bd f883 a2bf df90 aabf
000002f0: d0f7 4dc0 241d d1bf 2eab aa3d 6132 a4bf
00000300: 0c58 0c3f b572 cabf b1e2 70bf d856 97bf
00000310: adec 3ec0 d874 16c0 ea74 1ebf e9a2 1bbf
00000320: 66d8 bfbf 7743 59c0 a7a2 7ebe b16a 4d3e
00000330: e7bb 1e3f b43e cd3e 9c4c 89be 4756 fabf
00000340: 608f c6bf 09fa ae3e 346c 713d 7e2e dcbf
00000350: 489f c3bf e8c5 57c0 96cc 5bc0 1f8a 293d
00000360: 3a00 90bf 9884 48c0 11b5 3ebf 09d8 183f
00000370: 386e 19bf 6435 5d3d 4a70 12bc 7a65 04c0
00000380: c0ae a8bf ed23 45c0 9513 a1bf 1a84 d1bf
00000390: 836f 5ebf 5ffb 46c0 2275 28c0 fc2f f6bf
000003a0: 88f5 e1bf f118 dcbf 85da fbbf 124c 93bf
000003b0: 31af a4bf 8d33 c7bf 6e11 6dc0 7ae3 6fbf
000003c0: 40e0 593d 9076 dabe f13b 283a 2ca8 4ac0
000003d0: 3dab ba3e 4dd9 1cc0 34ed c6bf f150 a3be
000003e0: 1df3 59bf 2119 51c0 1f39 2bc0 d7d8 d2bf
000003f0: fd19 13c0 5e05 7fbf d26c 45bf 7071 c9bc
-0.90363336 -0.39991033 1.2925117 -0.4005239 -0.6300547 -2.7746885 -1.3693393 -1.3045015
-1.0064636 -1.5745522 -3.5993652 -0.13673511 0.016853886 -0.684718 -0.20091277 -1.3205494
0.01161871 -1.1569414 0.014353083 -0.7183669 -1.9951226 0.84192026 0.24530949 -0.43511438
-2.194328 -1.1664716 0.08079706 -1.3582675 -2.2651515 0.18637885 -0.5391829 0.6154781
-1.7531425 -0.13636693 -1.3237418 -3.6259487 -1.4632226 -1.8115681 -0.24766603 -2.0615728
0.049191475 0.3988337 -0.85483354 -2.7602546 -0.8532955 -2.3155663 -0.5027419 -1.3210492
-2.1002142 -0.26402023 -0.8850941 0.22587635 -0.9839191 0.5616004 -2.6963627 -2.2952583
0.07931774 -2.1024766 -2.125353 -2.643836 -2.3947523 -0.2959638 -0.21155897 -0.92397213
-0.69688505 -2.8111746 -1.4491502 -2.049036 -1.6773211 0.14806794 -2.0769198 0.06987888
-2.6970894 -1.0747463 -0.02513371 -2.5274098 -0.48472574 -2.2420342 0.52758116 -2.6961927
0.88902754 -1.7264293 -1.4720697 -0.54273695 -4.428887 -1.098635 -1.2947224 0.085893646
-1.0552797 0.07042676 -2.7413495 -2.3633873 -0.32327077 0.015174059 -1.0366766 -3.4502451
-0.2942284 -1.8149472 0.0036403858 -0.8712673 -1.4899772 -0.028685689 -3.6078768 1.2913074
-2.3560975 -0.032666888 -0.44025084 -1.5203544 -1.4182923 -1.0228223 -2.8979397 -0.010605522
-1.4739766 -1.5576426 -0.6549099 -3.1143203 -2.7815247 -0.5244088 -1.831673 -3.1831033
0.062237196 -0.6662642 -1.2620784 -1.6905422 -2.1075404 -2.1345124 -3.5694895 -0.11509357
-0.5536086 -0.1019997 -1.791241 0.20037112 -0.7111644 -1.5785364 0.07778987 -0.79340553
-2.8906305 -0.8709873 -0.4588021 -1.7642568 0.82730126 -0.27058527 -0.41351768 -1.8724042
-1.0125195 -1.6977012 -1.0873443 -3.5215714 -0.94655144 -3.651455 -1.3107852 -0.39871967
-1.2514111 -1.2002074 -0.99904925 -0.73188657 -1.2262522 -2.0386117 0.11997409 -2.2153685
0.039422523 -0.65815157 0.02057344 -3.0708926 -1.5964699 -3.3239818 0.29656827 -0.75178796
-1.1448996 -1.3424177 -4.8671403 -0.2681154 -2.0936358 0.08385783 -3.038426 -1.6759207
0.30318505 -1.1809086 -3.048525 -4.047231 -3.2072964 1.2153801 -1.4961414 -1.0723699
-2.3157878 -0.065052375 -1.2696524 -1.3325461 -3.2182503 -1.6337018 0.08333431 -1.2827874
0.5482185 -1.5816256 -0.94095904 -1.1823378 -2.9831955 -2.3508816 -0.61897147 -0.60795456
-1.4987915 -3.3947427 -0.24866734 0.20060231 0.62005466 0.400869 -0.2681626 -1.955758
-1.5512505 0.34175137 0.05894108 -1.7201688 -1.5282984 -3.3714542 -3.434362 0.04139149
-1.1250069 -3.1330929 -0.74495035 0.59704643 -0.59933805 0.054005995 -0.008937905 -2.0686936
-1.317833 -3.0803177 -1.2584101 -1.6368439 -0.86888903 -3.1090925 -2.6321492 -1.9233394
-1.7653055 -1.7195112 -1.9676062 -1.150759 -1.2865964 -1.5562607 -3.7041888 -0.93706477
0.053192377 -0.4266858 0.00064176234 -3.1665144 0.3645877 -2.450763 -1.5541139 -0.3189769
-0.85136586 -3.2671587 -2.6753614 -1.6472424 -2.2984612 -0.99617565 -0.7711917 -0.024590224
